models/final_model_v2.pth (torch, 88781 bytes, 13 tensors)

net.0.weight f4 [128, 80]
0.082400404 0.042171847 -0.07069386 0.017247032 0.046523165 -0.008143179 -0.028436128 -0.07486727
-0.100050405 -0.07241008 0.09048432 0.08320282 0.017355327 -0.10187882 0.048118576 0.08976566
-0.052129652 -0.05667445 0.046219133 -0.037439436 -0.031647403 0.0100741945 0.00045497974 0.085251346
0.09427297 -0.07124762 -0.0477945 0.08747904 0.10110629 -0.08432694 0.02317958 -0.021171447
-0.064219326 -0.010233653 -0.1057789 -0.031759262 -0.03200911 -0.08602175 0.030617172 -0.08582197
0.071604274 0.036492407 0.063426584 -0.005058793 -0.07862233 0.08937294 -0.018151043 -0.11367535
0.026624177 0.052717455 -0.05988983 0.022907905 0.020139676 -0.08172205 0.08155127 0.033403922
0.013986384 0.0013082754 -0.08354584 -0.013494067 0.10965684 -0.0751567 -0.028420666 -0.009600984
0.077365965 -0.021584516 -0.05490301 -0.104414985 -0.0577104 -0.054775905 -0.04186659 -0.032562595
0.069292694 -0.036250263 -0.09017912 0.007666243 0.048605785 -0.011144878 -0.08525121 -0.10994755
-0.088565856 -0.06882606 0.028662274 -0.06410119 -0.10615402 0.050380412 -0.046264514 -0.03557569
0.09108841 0.040379714 -0.055295892 0.06884135 0.021097586 0.08594085 0.031426124 0.040769204
-0.05319932 0.0013861231 -0.11076387 0.028009873 0.08002065 -0.05914548 -0.09253527 -0.0073930793
0.014062127 0.0042672874 0.045587182 -0.02443036 0.03165616 0.006929246 -0.038622692 0.061344177
0.036284972 -0.04071446 0.028506344 0.06989877 0.101486646 -0.026890745 0.1102863 0.0910163
-0.074667476 0.005828565 0.04850972 0.092012286 0.085760504 -0.096785486 -0.09630825 -0.004579595
-0.03924197 0.024924524 0.057783756 0.02078687 0.014536053 0.041933548 0.053396266 0.05014997
0.016127812 0.039912403 -0.11395937 0.083197914 0.045105666 0.06801201 -0.032197006 0.008743308
0.047408395 -0.0065935496 -0.09235541 0.039643697 0.07905126 0.1079735 -0.05215956 0.01139959
-0.02403033 -0.077555396 0.053400766 0.020301571 -0.0153939305 0.023380643 0.030215971 0.052555177
0.02499115 -0.06218249 -0.08180169 0.051355828 0.051023014 0.0068525383 0.034716483 0.08534177
-0.09098239 -0.07991546 0.064991206 -0.034226663 0.112296484 0.09337118 -0.10875082 0.033293355
-0.02817077 -0.08132343 -0.083038926 -0.06375353 -0.023451513 0.13511543 -0.08448537 -0.046355836
-0.0060107736 0.007984369 -0.04460742 -0.1059978 -0.01022368 0.05111432 -0.106154464 -0.061218675
0.09125012 0.09884961 0.05768831 0.023697268 0.013206951 -0.056201816 -0.09590435 0.014088307
0.045433003 0.06659615 0.08512592 0.06867686 0.052387055 -0.09101646 -0.022582773 0.022180725
-0.027799165 -0.03589662 -0.03031626 -0.031382862 -0.05869777 0.056387596 -0.08805481 0.019558458
0.055546265 0.11796309 0.1010438 0.094984725 -0.096296676 0.05617374 0.02027139 -0.09475219
-0.06852962 0.065949626 -0.06615988 0.07286858 0.027675992 0.048417002 0.030630605 0.09198338
0.09404158 -0.09123932 0.0083820345 0.06963097 -0.112063564 0.08955547 0.104078144 0.076104715
-0.017970124 0.072278425 -0.040997297 0.10084856 0.09143676 0.05804218 0.048501253 0.06763015
-0.0766676 -0.031095397 -0.109172925 -0.11229954 0.033202246 -0.02819868 0.10123783 0.081100576
00000000: 8bc1 a83d 63bc 2c3d f1c7 90bd a649 8d3c
00000010: 138f 3e3d f86a 05bc e2f2 e8bc 0354 99bd
00000020: 3ae7 ccbd bc4b 94bd d84f b93d 3d66 aa3d
00000030: c22c 8e3c d8a5 d0bd fc17 453d 0fd7 b73d
00000040: e785 55bd 7823 68bd 4650 3d3d 185a 19bd
00000050: b5a0 01bd 3c0e 253c 598a ee39 4298 ae3d
00000060: 3012 c13d 46ea 91bd 2ac4 43bd 3628 b33d
00000070: d110 cf3d 9ab3 acbd 1ae3 bd3c be6f adbc
00000080: 6c85 83bd 0dab 27bc 9ca2 d8bd 0016 02bd
00000090: fc1b 03bd 2c2c b0bd ddd0 fa3c 6ec3 afbd
000000a0: 43a5 923d 1079 153d cce5 813d 3bc4 a5bb
000000b0: bf04 a1bd 2909 b73d 7fb1 94bc 9fce e8bd
000000c0: f21a da3c 42ee 573d 0a4f 75bd 5ca9 bb3c
000000d0: f6fb a43c e45d a7bd 5a04 a73d 8dd2 083d
000000e0: 2527 653c 707a ab3a 151a abbd 3816 5dbc
000000f0: c493 e03d c2eb 99bd 75d2 e8bc 724d 1dbc
00000100: 0c72 9e3d 03d2 b0bc fbe1 60bd 86d7 d5bd
00000110: be61 6cbd b35c 60bd 4d7c 2bbd 5b60 05bd
00000120: 54e9 8d3d 287b 14bd d5af b8bd 1b35 fb3b
00000130: dc16 473d 0299 36bc 3098 aebd 2e2c e1bd
00000140: 0462 b5bd adf4 8cbd 25cd ea3c 7c47 83bd
00000150: 4767 d9bd b15b 4e3d dc7f 3dbd d1b7 11bd
00000160: 8f8c ba3d 3365 253d f27d 62bd b2fc 8c3d
00000170: d8d4 ac3c c201 b03d aeb8 003d 9cfd 263d
00000180: 88e7 59bd 93ae b53a 2bd8 e2bd f674 e53c
00000190: dee1 a33d 8842 72bd 2283 bdbd a541 f2bb
000001a0: d664 663c 9ad4 8b3b a0b9 3a3d 2e22 c8bc
000001b0: e4a9 013d ba0e e33b d432 1ebd 0844 7b3d
000001c0: 8d9f 143d 35c4 26bd 2386 e93c 1627 8f3d
000001d0: 3bd8 cf3d fb49 dcbc c9dd e13d c166 ba3d
000001e0: 43eb 98bd 8cfd be3b 21b2 463d f070 bc3d
000001f0: 34a3 af3d 7837 c6bd 433d c5bd 6d10 96bb
00000200: 30bc 20bd 842e cc3c a9ae 6c3d 3a49 aa3c
00000210: a028 6e3c 83c2 2b3d 0bb6 5a3d 0e6a 4d3d
00000220: 791e 843c 307b 233d 8863 e9bd ab63 aa3d
00000230: b8c0 383d e149 8b3d 02e1 03bd 1740 0f3c
00000240: 4e2f 423d b40e d8bb d524 bdbd 6e61 223d
00000250: a1e5 a13d 3621 dd3d 43a5 55bd 59c5 3a3c
00000260: 41db c4bc 5dd5 9ebd c3ba 5a3d 7b4f a63c
00000270: d336 7cbc c388 bf3c 7c87 f73c 1944 573d
00000280: 3dba cc3c 11b3 7ebd a587 a7bd 7d5a 523d
00000290: 82fd 503d 428b e03b df32 0e3d aac7 ae3d
000002a0: fa54 babd b7aa a3bd 1c1a 853d 4231 0cbd
000002b0: b3fb e53d 6439 bf3d c0b8 debd 9d5e 083d
000002c0: 63c6 e6bc e68c a6bd 5010 aabd 3691 82bd
000002d0: 631d c0bc b35b 0a3e aa06 adbd 9edf 3dbd
000002e0: 06f6 c4bb dfd0 023c 45b6 36bd 6015 d9bd
000002f0: 3981 27bc 405d 513d 8367 d9bd 6fc0 7abd
00000300: 58e1 ba3d aa71 ca3d 944a 6c3d c620 c23c
00000310: f861 583c e033 66bd 8069 c4bd a4d2 663c
00000320: f517 3a3d 9063 883d 8056 ae3d 74a6 8c3d
00000330: cf93 563d d666 babd 82ff b8bc 5ab4 b53c
00000340: 13bb e3bc 5608 13bd ce59 f8bc 518b 00bd
00000350: 136d 70bd aef6 663d 1556 b4bd 0f39 a03c
00000360: 7b84 633d a296 f13d 0df0 ce3d 5a87 c23d
00000370: 3137 c5bd 7016 663d 3010 a63c 700d c2bd
00000380: 4259 8cbd 9910 873d d57e 87bd 1f3c 953d
00000390: c3b8 e23c e850 463d 09ed fa3c c861 bc3d
000003a0: df98 c03d aedb babd cd54 093c af9a 8e3d
000003b0: 9581 e5bd dc68 b73d ec26 d53d cadc 9b3d
000003c0: 1536 93bc b606 943d c8ec 27bd b189 ce3d
000003d0: 3243 bb3d a3bd 6d3d 40a9 463d ad81 8a3d
000003e0: e703 9dbd c6bb febc 0e96 dfbd 4dfd e5bd
000003f0: 14ff 073d eb00 e7bc c855 cf3d 0f18 a63d

net.0.bias f4 [128]
-0.09602345 -0.009295799 0.06333135 -0.11111726 0.002838566 -0.017620223 -0.061311726 -0.021025263
-0.0839449 0.030932885 -0.10672639 -0.07977732 -0.06493379 0.10564458 -0.07955869 -0.038431834
0.054242507 0.064245634 0.06459795 0.058459666 0.0071079084 -0.01883297 0.06990417 -0.10484714
-0.08128516 -0.050916962 0.029438533 0.06390639 -0.07335618 -0.011709201 0.0008297562 0.0992612
-0.033941396 0.0551404 -0.09873639 -0.095214054 0.08780777 0.015857706 0.0044515715 -0.073680066
0.08191796 0.072518416 0.07689869 -0.0495695 0.079525605 0.028508598 -0.061882578 0.011609746
0.032428417 0.051491383 0.048296943 -0.071175285 -0.10759198 0.09243283 -0.10700065 0.1074859
-0.06058961 0.02481379 0.001201224 -0.009130168 -0.018899662 -0.10082462 -0.035024256 0.08564902
0.092321955 -0.03329187 -0.0801736 0.118733674 0.047161147 -0.05772481 -0.012441524 0.0679701
-0.010555192 -0.09182384 0.1049662 0.05447477 0.026144423 0.044761986 -0.0694007 0.05808098
-0.0305367 -0.024244444 -0.0025337585 0.12312106 0.09969522 -0.031881504 0.091756456 -0.051182114
-0.0180144 0.038662765 -0.060743675 -0.08981091 0.0691987 -0.08421871 0.025610482 -0.034815863
0.067048244 -0.11099045 -0.07437882 -0.04598277 0.016365744 -0.11268452 -0.09745509 0.015032698
-0.04727067 0.08916731 0.10176865 -0.06715121 0.094221026 0.10749366 -0.032643117 0.060329817
0.07657473 -0.0912988 -0.013132779 0.043912236 -0.0037943134 -0.06110631 0.04248054 0.0431834
-0.045311306 0.077624656 -0.05435502 -0.031913538 -0.07037491 -0.023914523 -0.05224978 0.011227347
00000000: f1a7 c4bd 684d 18bc deb3 813d 7291 e3bd
00000010: 3c07 3a3b 4958 90bc 0122 7bbd 2c3d acbc
00000020: 4eeb abbd f666 fd3c 5e93 dabd 4b62 a3bd
00000030: 02fc 84bd 305c d83d abef a2bd b36a 1dbd
00000040: 642d 5e3d 3793 833d ee4b 843d 6773 6f3d
00000050: 75e9 e83b 9a47 9abc eb29 8f3d 19ba d6bd
00000060: d578 a6bd 4e8e 50bd 1429 f13c 5ae1 823d
00000070: c43b 96bd f3d7 3fbc ff83 593a 7549 cb3d
00000080: 2206 0bbd e6da 613d 4e36 cabd 96ff c2bd
00000090: 8fd4 b33d 05e8 813c 7dde 913b 93e5 96bd
000000a0: 9ac4 a73d 8984 943d 0f7d 9d3d 6309 4bbd
000000b0: 52de a23d dd8a e93c 9678 7dbd ce36 3e3c
000000c0: a9d3 043d a1e8 523d 04d3 453d 59c4 91bd
000000d0: 2f59 dcbd 6c4d bd3d 2823 dbbd 9121 dc3d
000000e0: d02c 78bd 4a46 cb3c 6472 9d3a b396 15bc
000000f0: 77d3 9abc 237d cebd 9875 0fbd c168 af3d
00000100: 4b13 bd3d 0e5d 08bd 0e32 a4bd a42a f33d
00000110: 0c2c 413d da70 6cbd 89d7 4bbc e833 8b3d
00000120: afef 2cbc 230e bcbd 85f8 d63d f020 5f3d
00000130: d42c d63c 5858 373d f421 8ebd 52e6 6d3d
00000140: 1a28 fabc 499c c6bc 6a0d 26bb e526 fc3d
00000150: 022d cc3d 2e96 02bd cfea bb3d 56a4 51bd
00000160: ef92 93bc d95c 1e3d 5cce 78bd c8ee b7bd
00000170: 0cb8 8d3d dc7a acbd 13cd d13c 149b 0ebd
00000180: 9750 893d f64e e3bd ec53 98bd 6e58 3cbd
00000190: 7411 863c 24c7 e6bd 8996 c7bd b54b 763c
000001a0: e49e 41bd 5a9d b63d 156c d03d 9386 89bd
000001b0: f4f6 c03d a325 dc3d cab4 05bd 661c 773d
000001c0: 36d3 9c3d defa babd de2a 57bc 51dd 333d
000001d0: 04aa 78bb 9c4a 7abd 1300 2e3d 14e1 303d
000001e0: 5998 39bd adf9 9e3d 5fa3 5ebd c5b7 02bd
000001f0: b920 90bd 64e8 c3bc de03 56bd e8f2 373c

net.1.weight f4 [128]
0.9991506 1.0016395 1.0230275 0.999272 0.9891505 1.0146121 1.0100352 0.9979132
0.98687214 0.9838315 1.025641 1.0037742 0.986696 0.9931896 1.0066446 0.98368394
0.9815141 1.0222002 0.9966717 1.0090414 0.988553 1.0100521 0.980746 1.0060467
0.97629446 1.0078568 0.9938035 0.9953978 1.0075183 0.99007046 0.98964584 0.9884476
1.0144999 0.9841201 0.99438095 1.0041188 1.00119 0.9980709 1.0018178 0.9946889
1.0026636 0.9972814 0.9937228 0.98436654 0.995609 0.99095535 1.0111789 1.0040392
0.9870207 1.0029584 1.0046219 0.9929833 0.99256045 1.0216113 0.98176163 1.0045261
1.0020571 1.015111 1.0044284 0.9972058 0.9824553 0.9981971 1.0002376 1.0171402
0.9926956 0.9964642 1.0118605 1.0032893 0.97750175 1.0238905 1.0146166 0.9994865
0.9851179 0.9971953 1.0004131 0.9959948 1.0093309 1.002704 0.9972441 1.0079043
0.99324644 0.9947085 1.0190139 0.9981483 0.9969356 0.99782515 0.98456293 0.98267895
1.0295113 1.0059497 0.9895537 0.9919909 0.9990266 1.0004739 1.0070523 0.9950386
1.010182 0.9969119 0.9973017 1.0141709 0.98922104 1.025382 1.0097767 1.003685
0.99511224 1.0228639 0.98634505 0.9970049 0.9948809 1.0079801 1.010915 1.0055758
0.99524665 1.0035502 1.0033836 1.0173826 0.99253887 1.0023743 0.9988671 1.0117791
0.9990454 0.9894204 1.0102577 0.98177385 1.0078549 0.9860808 0.9786791 0.99962264
00000000: 55c8 7f3f b935 803f 91f2 823f 4ad0 7f3f
00000010: f838 7d3f cfde 813f d548 813f 3d77 7f3f
00000020: a7a3 7c3f 62dc 7b3f 3448 833f ac7b 803f
00000030: 1c98 7c3f ac41 7e3f bbd9 803f b6d2 7b3f
00000040: 8244 7b3f 75d7 823f e025 7f3f 4528 813f
00000050: cf11 7d3f 6349 813f 2b12 7b3f 23c6 803f
00000060: 6fee 793f 7401 813f e869 7e3f 64d2 7e3f
00000070: 5cf6 803f 4275 7d3f 6e59 7d3f e70a 7d3f
00000080: 22db 813f 4bef 7b3f c08f 7e3f f786 803f
00000090: fe26 803f 9381 7f3f 913b 803f efa3 7e3f
000000a0: 4857 803f d54d 7f3f 9e64 7e3f 72ff 7b3f
000000b0: 3be0 7e3f 40af 7d3f 4f6e 813f 5b84 803f
000000c0: 63ad 7c3f f160 803f 7397 803f 2734 7e3f
000000d0: 7118 7e3f 29c4 823f bb54 7b3f 5094 803f
000000e0: 6843 803f 28ef 813f 1c91 803f e148 7f3f
000000f0: 3182 7b3f d889 7f3f c907 803f a631 823f
00000100: 4d21 7e3f 4718 7f3f a584 813f c96b 803f
00000110: 8e3d 7a3f d80e 833f f5de 813f 59de 7f3f
00000120: b030 7c3f 3148 7f3f 890d 803f 84f9 7e3f
00000130: c131 813f 9b58 803f 644b 7f3f 0203 813f
00000140: 6645 7e3f 37a5 7e3f 0c6f 823f a686 7f3f
00000150: 2c37 7f3f 7871 7f3f 510c 7c3f d990 7b3f
00000160: 07c7 833f f6c2 803f 6453 7d3f 1ef3 7d3f
00000170: 35c0 7f3f 870f 803f 17e7 803f daba 7e3f
00000180: a54d 813f 9e35 7f3f 2a4f 7f3f 5ad0 813f
00000190: 973d 7d3f b83f 833f 5d40 813f c078 803f
000001a0: adbf 7e3f 34ed 823f 1c81 7c3f b73b 7f3f
000001b0: 84b0 7e3f 7e05 813f aa65 813f b5b6 803f
000001c0: 7cc8 7e3f 5574 803f e06e 803f 9839 823f
000001d0: 0717 7e3f cd4d 803f c1b5 7f3f fa81 813f
000001e0: 70c1 7f3f a84a 7d3f 2050 813f 8855 7b3f
000001f0: 6401 813f cb6f 7c3f b78a 7a3f 45e7 7f3f

net.1.bias f4 [128]
-0.0058965757 -0.0056658993 0.021781556 0.0045058047 -0.012189055 0.00787373 0.0007062553 0.0010472239
-0.015618971 -0.015385061 0.02052445 -0.0057839537 -0.015507969 0.012492998 0.020746442 -0.0055045737
-0.015498195 0.015702577 -0.006649302 -0.003130194 -0.014750494 0.008586511 -0.01877714 0.002953419
-0.012838095 0.015337961 0.002788394 0.0088246185 0.004323649 -0.017593995 -0.004313948 -0.0153095145
0.01099872 -0.012491717 -0.001495031 -0.0056499955 0.00024341763 0.013292264 -0.0020295489 -0.014967002
0.0014275695 0.00032044106 0.015514771 -0.022368336 0.0042906483 -0.008976936 0.0021034316 -0.00078792626
-0.014432032 0.009514168 0.0019336373 -0.008134687 -0.0048145712 0.023404023 -0.010964133 0.007485429
0.008518074 0.022281686 0.026534265 0.0019180501 -0.003544517 -0.00331598 -0.0028892795 0.02185296
-0.021097036 -0.004745671 0.010225181 0.006565442 -0.023345817 0.02017021 0.028937204 0.0060765073
-0.021702513 -0.020848023 -0.013209176 0.008269156 0.0036481153 -0.005688525 -0.0019586915 -0.0037278465
-0.004400896 -0.0038743361 0.034348067 -0.009836005 0.010861864 -0.0048292475 -0.013529123 -0.031878777
0.029051453 -0.006682993 0.0077695716 -0.0084225675 0.010913162 -0.0017019333 0.003982107 -0.011970315
0.0061077313 -0.0051411497 -0.0065439986 0.0028011783 -0.014254058 0.027604042 0.006793384 -0.0058435146
-0.016516613 -0.00461613 -0.011809045 -0.0076578297 -0.009186858 -0.007233589 0.017941978 0.0064959773
-0.0067615886 0.008364703 0.0028775996 0.03026785 -0.006553455 -0.0076178676 -0.0031335661 0.006713739
0.0019091335 -0.009906238 0.011505371 -0.018169345 -0.0014924007 -0.0049978285 -0.021431698 0.0044707134
00000000: 1038 c1bb 02a9 b9bb 3c6f b23c 6ea5 933b
00000010: 9ab4 47bc d100 013c fe23 393a 0143 893a
00000020: b6e6 7fbc 9f11 7cbc e422 a83c 5287 bdbb
00000030: 2315 7ebc 6eaf 4c3c 71f4 a93c b65f b4bb
00000040: 24ec 7dbc b1a2 803c 63e2 d9bb f123 4dbb
00000050: 0eac 71bc 70ae 0c3c 84d2 99bc 268e 413b
00000060: e056 52bc 124c 7b3c 7dbd 363b 2295 103c
00000070: 66ad 8d3b 4821 90bc 055c 8dbb c2d4 7abc
00000080: fa33 343c 0faa 4cbc ebf4 c3ba 9923 b9bb
00000090: ec3d 7f39 ccc7 593c 2e02 05bb 2838 75bc
000000a0: 491d bb3a df00 a839 ab31 7e3c cd3d b7bc
000000b0: 9198 8c3b 0014 13bc bad9 093b d68c 4eba
000000c0: 5474 6cbc 50e1 1b3c 1a72 fd3a 5a47 05bc
000000d0: 8dc3 9dbb cbb9 bf3c e8a2 33bc 5448 f53b
000000e0: 648f 0b3c 1588 b63c 635e d93c 1567 fb3a
000000f0: 214b 68bb ea50 59bb 115a 3dbb fb04 b33c
00000100: b1d3 acbc 9381 9bbb 8487 273c eb22 d73b
00000110: ba3f bfbc ff3b a53c b70d ed3c 701d c73b
00000120: 78c9 b1bc 79c9 aabc 4d6b 58bc 5b7b 073c
00000130: 3815 6f3b ce66 babb 645d 00bb e34e 74bb
00000140: 6435 90bb 93e8 7dbb 8fb0 0c3d 3227 21bc
00000150: f6f5 313c aa3e 9ebb 41a9 5dbc 5293 02bd
00000160: 50fd ed3c 02fd dabb e497 fe3b cffe 09bc
00000170: 1ecd 323c 6813 dfba 567c 823b 241f 44bc
00000180: 5d23 c83b 1777 a8bb 0a6f d6bb f993 373b
00000190: da89 69bc df21 e23c 099b de3b f47a bfbb
000001a0: d94d 87bc e842 97bb ba7a 41bc 88ee fabb
000001b0: 7a84 16bc be07 edbb 0efb 923c 35dc d43b
000001c0: 5190 ddbb 1b0c 093c 1c96 3c3b 48f4 f73c
000001d0: 5dbe d6bb 4e9f f9bb 845c 4dbb edfe db3b
000001e0: e43b fa3a c64d 22bc 0681 3c3c e1d7 94bc
000001f0: a89c c3ba d3c4 a3bb 8791 afbc 107f 923b

net.1.running_mean f4 [128]
-0.39819664 0.30341342 0.22272083 0.14365254 0.13598795 0.05446094 -0.20176293 -0.34250373
-0.7204473 0.35882482 0.27797794 -0.45464236 0.14470159 0.6559734 -0.29824257 -0.49678594
0.089227006 0.18639961 0.14790925 -0.237082 0.05682765 -0.06926963 0.6357176 -0.70841336
-0.5406767 -0.30126745 -0.12177424 -0.16828896 -0.04080915 -0.2519408 -0.20694882 -0.684898
0.16743676 -0.1201884 0.063681416 -0.29184586 -0.10471755 -0.04473571 -0.14178619 0.005697783
0.13489713 -0.31002656 -0.27193266 0.35367608 -0.02914877 0.18340749 0.34649375 0.19443144
-0.12208399 0.42492586 0.0028585186 -0.3301003 -0.59086084 0.32280198 0.31781054 -0.13841115
-0.21517718 0.1806105 0.32269794 -0.31283033 0.3380571 0.20051233 0.08875704 -0.36408746
-0.1850378 -0.22655551 -0.054869696 -0.2918555 0.62159276 -0.4308748 0.1253767 -0.015369264
0.09709197 0.21440789 0.71333873 0.23500073 -0.18288568 0.08936814 -0.1614078 -0.40742558
0.010962241 -0.252113 0.0037394036 0.41073844 0.3941491 -0.43957323 0.1703124 -0.21890423
-0.0037220053 0.2848507 -0.29265746 0.037519768 0.21586557 -0.06191224 -0.4507858 0.22266999
0.34036165 0.078235745 0.14679128 0.2572845 0.010758063 0.028384957 0.065409094 0.34649116
-0.26121998 -0.035364605 -0.10336025 -0.7843714 -0.012790879 0.052059893 -0.2744939 0.14359593
0.37884355 -0.29804388 -0.19840766 0.30972084 -0.42203575 -0.3704856 0.34621948 -0.19017105
0.18851617 -0.49963042 0.034572043 0.31693202 -0.28650355 0.16843581 0.13775688 0.41241267
00000000: 6ee0 cbbe 0159 9b3e ee10 643e a719 133e
00000010: 6d40 0b3e 6f12 5f3d f19a 4ebe a65c afbe
00000020: 3c6f 38bf e3b7 b73e 2053 8e3e e2c6 e8be
00000030: a72c 143e dfed 273f 40b3 98be ba5a febe
00000040: a6bc b63d 8adf 3e3e 8675 173e a0c5 72be
00000050: 1cc4 683d 3cdd 8dbd 63be 223f 945a 35bf
00000060: ca69 0abf ba3f 9abe c664 f9bd f153 2cbe
00000070: 7f27 27bd 62fe 80be 64ea 53be 7a55 2fbf
00000080: 8b74 2b3e 5625 f6bd 676b 823d d26c 95be
00000090: 2876 d6bd cb3c 37bd 6630 11be 78b4 ba3b
000000a0: 7922 0a3e cdbb 9ebe c23a 8bbe 0815 b53e
000000b0: 67c9 eebc 2ccf 3b3e a167 b13e 0919 473e
000000c0: 2c07 fabd e28f d93e fc55 3b3b e802 a9be
000000d0: a842 17bf 4d46 a53e 10b8 a23e a7bb 0dbe
000000e0: 6857 5cbe f5f1 383e aa38 a53e 4c2b a0be
000000f0: d215 ad3e 1b53 4d3e 40c6 b53d ac69 babe
00000100: 8d7a 3dbe 2bfe 67be 0cbf 60bd 166e 95be
00000110: b420 1f3f 9f9b dcbe c062 003e 5ecf 7bbc
00000120: 28d8 c63d be8d 5b3e 5e9d 363f 08a4 703e
00000130: 6246 3bbe a506 b73d 1648 25be 169a d0be
00000140: f99a 333c f514 81be c810 753b 4f4c d23e
00000150: e9cd c93e be0f e1be 6066 2e3e 6e28 60be
00000160: e3ec 73bb f3d7 913e 33d7 95be 54ae 193d
00000170: dd0b 5d3e b097 7dbd 65cd e6be 9a03 643e
00000180: e243 ae3e 103a a03d 7450 163e cbba 833e
00000190: 9642 303c 9287 e83c 34f5 853d 4a67 b13e
000001a0: a0be 85be 7ada 10bd 8aae d3bd 90cc 48bf
000001b0: d690 51bc c13c 553d 778a 8cbe d00a 133e
000001c0: c8f7 c13e 3599 98be 612b 4bbe bb93 9e3e
000001d0: 1215 d8be 4ab0 bdbe ae43 b13e 33bc 42be
000001e0: 620a 413e 8fcf ffbe 6a9b 0d3d ea44 a23e
000001f0: 98b0 92be 707a 2c3e 2410 0d3e c127 d33e

net.1.running_var f4 [128]
0.008093754 0.009961269 0.008444985 0.006812719 0.0052264524 0.00413139 0.0066410517 0.011979203
0.008146796 0.007342069 0.0077309418 0.0052425554 0.0055156243 0.013098568 0.0051582865 0.013059308
0.007883094 0.0060516647 0.00644017 0.008419341 0.004293761 0.009219376 0.0058238916 0.007139811
0.009847979 0.006256415 0.010862931 0.004929511 0.007057033 0.010231705 0.006930408 0.005418246
0.012544185 0.0038320213 0.004517579 0.0054766326 0.007591098 0.00648156 0.010060235 0.010291598
0.005577177 0.0048215925 0.009876854 0.0094404435 0.013939757 0.007072624 0.007938825 0.0035598068
0.010429792 0.009683777 0.005268779 0.008937577 0.0057926527 0.0071617407 0.0050228396 0.007739846
0.0064309593 0.0040605613 0.005799583 0.012731658 0.011281764 0.008975914 0.00900495 0.0079167215
0.0102593675 0.005853035 0.0079122465 0.0061627184 0.009602141 0.008025382 0.004573386 0.0038196023
0.0035540208 0.0043814783 0.0074763643 0.008779972 0.0038144365 0.004499854 0.0039731422 0.0067515816
0.0047243442 0.004594321 0.0045360005 0.007905434 0.005346222 0.0046660104 0.006529836 0.0055556307
0.005535102 0.0058332337 0.008461384 0.010760381 0.008717985 0.004653096 0.004924086 0.0051249475
0.004238502 0.0076207076 0.011796672 0.0052418215 0.0049655666 0.008654375 0.0046898685 0.0049427515
0.007295377 0.005940266 0.0057386057 0.00808088 0.00699333 0.005898613 0.0069323205 0.0059652347
0.0059406185 0.0072757374 0.0038158535 0.010984431 0.00814746 0.0130754225 0.004384211 0.0070000878
0.014975971 0.0072625987 0.011930551 0.012638118 0.010082217 0.0072687836 0.006562709 0.008214685
00000000: aa9b 043c 9734 233c d65c 0a3c 3b3d df3b
00000010: a942 ab3b 9c60 873b 2e9d d93b 6b44 443c
00000020: 247a 053c bd95 f03b d753 fd3b bec9 ab3b
00000030: 69bc b43b 609b 563c d806 a93b b5f6 553c
00000040: 1828 013c 0b4d c63b 1008 d33b 47f1 093c
00000050: aeb2 8c3b de0c 173c 58d6 be3b 13f5 e93b
00000060: 6b59 213c 9d02 cd3b 6ffa 313c bc87 a13b
00000070: af3e e73b e2a2 273c 7a18 e33b 8b8b b13b
00000080: 2086 4d3c a622 7b3b 3308 943b 5375 b33b
00000090: bfbe f83b 4463 d43b afd3 243c 179e 283c
000000a0: c0c0 b63b 73fe 9d3b 87d2 213c 17ac 1a3c
000000b0: 9463 643c 78c1 e73b d811 023c a64b 693b
000000c0: b8e1 2a3c b4a8 1e3c b9a5 ac3b ea6e 123c
000000d0: 4bd0 bd3b 09ad ea3b a296 a43b 899e fd3b
000000e0: ccba d23b 750e 853b 6e0a be3b 7298 503c
000000f0: 26d7 383c b60f 133c 7f89 133c 23b5 013c
00000100: e816 283c d1ca bf3b 5ea2 013c a1f0 c93b
00000110: 4c52 1d3c e47c 033c 58dc 953b 4b52 7a3b
00000120: 93ea 683b 8192 8f3b 4afc f43b dfd9 0f3c
00000130: a0fb 793b 8373 933b 2231 823b 5f3c dd3b
00000140: acce 9a3b f58b 963b bba2 943b cb85 013c
00000150: 5c2f af3b 55e5 983b 3cf8 d53b 020c b63b
00000160: cd5f b53b b624 bf3b 9ea1 0a3c 4f4c 303c
00000170: e1d5 0e3c 0079 983b 3a5a a13b 2def a73b
00000180: 22e3 8a3b 21b7 f93b d446 413c 96c3 ab3b
00000190: 31b6 a23b 14cb 0d3c 78ad 993b cef6 a13b
000001a0: 0f0e ef3b 90a6 c23b ea0a bc3b ab65 043c
000001b0: 4e28 e53b 2749 c13b 8528 e33b 0478 c33b
000001c0: 85a9 c23b 4f69 ee3b 6613 7a3b 0bf8 333c
000001d0: ed7c 053c 4c3a 563c 6da9 8f3b fe60 e53b
000001e0: c65d 753c 18fb ed3b 5c78 433c 1c10 4f3c
000001f0: e22f 253c fa2e ee3b fe0b d73b e396 063c

net.4.weight f4 [64, 128]
0.048057605 0.042237896 -0.08110736 0.030299462 0.0640869 -0.07649154 -0.010614434 -0.023002412
-0.008115076 0.03760137 0.059898097 0.08971866 -0.08087033 -0.035216123 -0.025060523 0.039334122
-0.015978426 0.020130496 -0.08348948 -0.0825405 0.07579571 -0.046013866 0.030882737 0.03577877
-0.05871527 -0.05125052 -0.036509622 0.04113562 -0.02938936 -0.03378829 -0.056634713 0.06321514
0.017708326 -0.026228417 -0.07514992 -0.00992175 0.07096108 -0.015542151 0.01700238 -0.09293819
-0.059800703 -0.07878045 0.0007676773 -0.059097037 0.008602232 -0.04748722 -0.07645735 0.03004063
0.07880385 -0.028334698 -0.09921983 0.012009403 -0.012662021 0.09020893 0.028291404 -0.06384884
0.038064264 0.07592446 0.011276926 0.06994154 -0.032855477 -0.07032668 0.044344254 0.057797074
-0.048179496 -0.008330367 -0.046518523 -0.08537341 0.06678849 -0.016058221 0.05646217 -0.016265992
-0.0045838486 -0.05857161 -0.0663262 -0.10164578 -0.05095661 0.031815004 -0.06268263 -0.013384349
-0.047491483 0.014349526 0.030007252 0.036560953 0.05891762 -0.03063468 -0.004627638 0.035915777
0.029215664 -0.04035692 -0.06200437 0.06899926 0.06898785 -0.097887345 -0.0055279275 -0.06038365
-0.04492351 0.044927105 0.037278123 -0.027800398 0.045075927 0.003860431 0.004804112 0.027126329
-0.070981875 -0.0945404 0.0102473125 -0.046323977 -0.03490516 -0.015410108 0.05025792 0.076725855
0.021529224 0.0148355635 -0.022330912 0.05709056 0.045601353 0.016877975 0.07831199 -0.074499264
-0.0037505275 0.0064863707 0.039900403 0.016086236 -0.04818934 -0.062026292 -0.05770896 0.0077325045
0.033885557 -0.066675775 -0.010076659 0.021933695 -0.080717996 0.021663573 -0.07312356 0.014288782
-0.031220805 -0.044353575 0.038341112 0.103438675 -0.0020792594 -0.051826734 0.0054104114 -0.0035084782
0.067487754 -0.091766074 0.011848601 -0.0370844 0.060114373 -0.051625986 -0.061900076 0.041465532
0.032732498 -0.07829622 0.082353964 0.06454425 0.037566066 0.07774872 -0.039917395 -0.08126336
-0.016980074 -0.014442237 -0.040472873 0.06704805 -0.07322086 0.06700008 0.04531616 -0.051433895
0.052984744 0.08371968 -0.021073196 -0.0010096459 0.07060161 -0.045388028 -0.012320212 -0.039531
-0.09527662 -0.020251207 0.033048507 0.026279937 0.03227096 0.06550305 0.019361971 -0.009449182
-0.07215928 0.021597104 -0.021601982 0.07409176 0.014562263 0.02149871 -0.01344899 -0.07358781
0.053293146 0.026877811 -0.011256906 -0.11236009 0.061084557 -0.07391428 0.06502645 -0.058264717
0.07422379 -0.07175808 0.003970695 0.057327956 0.02134084 -0.008748025 0.039621904 -0.019908378
-0.06406129 0.0275388 0.045084942 -0.0067332406 0.048288994 -0.054808512 -0.055044238 0.046359763
0.025350777 -0.059229415 0.034975957 -0.09916309 -0.000890035 0.038808707 -0.034390427 -0.0056547257
0.07728462 -0.025588866 -0.02673807 -0.03486041 -0.055114612 0.08959129 0.03277639 -0.0754298
0.045910414 0.020015044 -0.004710851 0.04548243 -0.055161867 0.035842836 0.028256971 -0.07757007
-0.04885642 0.015788218 0.029345417 0.0724817 0.00085957453 0.041324787 0.08702994 0.03146786
-0.005239868 -0.0022131556 -0.019490935 -0.02342652 0.011069988 -0.029151386 0.047229532 -0.01167195
00000000: 0dd8 443d a501 2d3d 9e1b a6bd 9436 f83c
00000010: fe3f 833d 99a7 9cbd 2ae8 2dbc 8e6f bcbc
00000020: 19f5 04bc e503 1a3d b557 753d 6bbe b73d
00000030: 589f a5bd c83e 10bd ba4b cdbc d11c 213d
00000040: 30e5 82bc b6e8 a43c 88fc aabd fe0a a9bd
00000050: c83a 9b3d 0979 3cbd cbfd fc3c c28c 123d
00000060: 6c7f 70bd 11ec 51bd 1d8b 15bd d37d 283d
00000070: f5c1 f0bc 9765 0abd cdf9 67bd f076 813d
00000080: 0d11 913c fadc d6bc 34e8 99bd d68e 22bc
00000090: 0b54 913d 82a4 7ebc 9348 8b3c 6156 bebd
000000a0: 95f1 74bd a557 a1bd f43d 493a bc0f 72bd
000000b0: 60f0 0c3c f681 42bd ac95 9cbd c417 f63c
000000c0: ea63 a13d 2b1e e8bc c433 cbbd 16c3 443c
000000d0: 5e74 4fbc 76bf b83d 60c3 e73c 2ec3 82bd
000000e0: 46e9 1b3d 497e 9b3d dbc2 383c 833d 8f3d
000000f0: 7793 06bd 6f07 90bd 52a2 353d a0bc 6c3d
00000100: dd57 45bd 177c 08bc 358a 3ebd 41d8 aebd
00000110: 67c8 883d 888c 83bc e044 673d 4240 85bc
00000120: 1c34 96bb c9e8 6fbd 08d6 87bd aa2b d0bd
00000130: e1b7 50bd 7350 023d c05f 80bd 074a 5bbc
00000140: 6e86 42bd 461a 6b3c c5d1 f53c f0c0 153d
00000150: 9a53 713d 95f5 fabc 71a3 97bb 6c1c 133d
00000160: b055 ef3c 4c4d 25bd 4bf8 7dbd 7c4f 8d3d
00000170: 8049 8d3d 2979 c8bd 9e23 b5bb d954 77bd
00000180: b701 38bd 7c05 383d f2b0 183d a9bd e3bc
00000190: 89a1 383d 49ff 7c3b d06b 9d3b 0938 de3c
000001a0: f25e 91bd 669e c1bd 58e4 273c 36be 3dbd
000001b0: b7f8 0ebd ad7a 7cbc 40db 4d3d 7222 9d3d
000001c0: 0e5e b03c dd10 733c 51ef b6bc cbd7 693d
000001d0: 7cc8 3a3d ae43 8a3c 0962 a03d 1293 98bd
000001e0: 69cb 75bb 9f8b d43b 9b6e 233d 48c7 833c
000001f0: 2f62 45bd 480f 7ebd 3b60 6cbd f360 fd3b
00000200: 95cb 0a3d 4f8d 88bd 9218 25bc 4bae b33c
00000210: 7a4f a5bd ce77 b13c cec1 95bd 7f1b 6a3c
00000220: c6c2 ffbc 18ac 35bd 920b 1d3d a8d7 d33d
00000230: 2f44 08bb 4548 54bd d249 b13b 7fee 65bb
00000240: 0537 8a3d daef bbbd a220 423c d0e5 17bd
00000250: 7d3a 763d c575 53bd ef8a 7dbd c3d7 293d
00000260: 8312 063d c559 a0bd 32a9 a83d c72f 843d
00000270: e0de 193d b93a 9f3d 6c80 23bd 686d a6bd
00000280: cc19 8bbc 229f 6cbc e2c6 25bd 7d50 893d
00000290: d1f4 95bd 5737 893d 709d 393d 59ac 52bd
000002a0: 8806 593d 3975 ab3d b2a1 acbc 1856 84ba
000002b0: 9497 903d cce8 39bd b7da 49bc 42eb 21bd
000002c0: 6320 c3bd dce5 a5bc df5d 073d 0649 d73c
000002d0: 8e2e 043d 7726 863d ff9c 9e3c bed0 1abc
000002e0: 3fc8 93bd 69ec b03c a4f6 b0bc 6cbd 973d
000002f0: 8f96 6e3c 101e b03c 2759 5cbc 35b5 96bd
00000300: ea49 5a3d db2e dc3c e36e 38bc 0c1d e6bd
00000310: cd33 7a3d 5f60 97bd 962c 853d fca6 6ebd
00000320: a402 983d e6f5 92bd 9b1c 823b b8d0 6a3d
00000330: fcd2 ae3c e053 0fbc 944a 223d e516 a3bc
00000340: 9132 83bd 0d99 e13c fdaa 383d 84a2 dcbb
00000350: aeca 453d e47e 60bd 1176 61bd bce3 3d3d
00000360: 6fac cf3c 8b9a 72bd f342 0f3d 0516 cbbd
00000370: 3d51 69ba e1f5 1e3d fadc 0cbd 474b b9bb
00000380: 6647 9e3d be9f d1bc cc09 dbbc cac9 0ebd
00000390: dcbf 61bd a37b b73d 8940 063d f07a 9abd
000003a0: 8f0c 3c3d 97f6 a33c 7b5d 9abb c94b 3a3d
000003b0: 69f1 61bd f0cf 123d 2a7b e73c 0fdd 9ebd
000003c0: ab1d 48bd 4b56 813c cd65 f03c 4971 943d
000003d0: 1255 613a 2e44 293d c13c b23d 71e4 003d
000003e0: 33b3 abbb 970a 11bb 74ab 9fbc f9e8 bfbc
000003f0: e55e 353c e3ce eebc c173 413d b53b 3fbc

net.4.bias f4 [64]
-0.017078483 -0.00960139 -0.010396115 0.06948544 0.07737871 -0.028462702 0.012805782 0.0021668742
-0.07601866 -0.08140919 -0.008506202 -0.02497962 0.07805026 0.03550179 0.07097909 0.016673885
0.022803498 0.06347809 0.0520185 0.043614496 0.011100415 -0.068477094 0.0717937 0.027339423
-0.053694636 0.027116014 -0.02914119 -0.033578843 0.009412504 0.041004192 -0.032101166 -0.067418575
0.01852315 -0.0025000721 -0.013987975 0.07547294 -0.054133676 -0.0024099215 0.03660744 0.005568806
-0.029181156 -0.026250765 -0.03921926 -0.068410344 0.010741825 -0.080101654 0.048322838 -0.020802824
-0.08815409 0.07302374 -0.011444469 -0.016424809 0.020155018 0.084213294 -0.06361609 -0.015365993
0.038166482 -0.081111275 0.046901632 -0.023307491 -0.010932135 -0.083521485 -0.06869506 -0.08253451
00000000: 2de8 8bbc 264f 1dbc 7754 2abc 624e 8e3d
00000010: bb78 9e3d 9d2a e9bc 58cf 513c 1e02 0e3b
00000020: acaf 9bbd ddb9 a6bd 995d 0bbc 0fa2 ccbc
00000030: d1d8 9f3d 536a 113d 7c5d 913d ac97 883c
00000040: 67ce ba3c cd00 823d 5a11 553d 1da5 323d
00000050: 84de 353c b83d 8cbd 9308 933d edf6 df3c
00000060: e8ee 5bbd 6722 de3c 81b9 eebc f889 09bd
00000070: e736 1a3c 03f4 273d 837c 03bd c012 8abd
00000080: dcbd 973c 40d8 23bb d22d 65bc 8f91 9a3d
00000090: 46bb 5dbd c6ef 1dbb aff1 153d 887a b63b
000000a0: 520d efbc d80b d7bc 60a4 20bd b91a 8cbd
000000b0: 7bfe 2f3c 560c a4bd 2bee 453d af6a aabc
000000c0: 228a b4bd 788d 953d 9581 3bbc 528d 86bc
000000d0: 231c a53c 0578 ac3d 2749 82bd a5c1 7bbc
000000e0: 7554 1c3d ab1d a6bd ed1b 403d 5aef bebc
000000f0: b31c 33bc 500d abbd ffaf 8cbd da07 a9bd

net.5.weight f4 [64]
0.94577146 1.0878073 1.0749775 1.0806093 0.9556867 1.0813268 1.0867116 1.105096
1.0045304 0.95024544 0.9522263 0.9536078 1.0805473 1.0889968 0.94216007 1.0785961
1.0927976 0.9830394 1.0756409 0.9645784 0.9405774 1.0872157 1.021588 1.0804315
0.94285643 1.0833564 0.9652447 1.0838386 0.9515567 1.0855174 0.94500893 0.94286066
1.0885687 1.0793355 1.1017303 1.0930415 0.9697528 1.0088086 0.93936193 1.0795414
0.9648956 1.0849409 1.0804361 0.9486012 1.0824147 1.0547338 1.0789574 0.94521475
1.0756675 1.0831971 0.95158607 0.9792401 1.0795225 0.940145 1.0832131 1.0813588
0.9441346 1.095292 1.0819485 0.9465467 1.0781021 0.9423534 1.0732071 1.1037062
00000000: 141e 723f 453d 8b3f dd98 893f 6851 8a3f
00000010: e2a7 743f eb68 8a3f 5e19 8b3f c973 8d3f
00000020: 7494 803f 4943 733f 1ac5 733f a41f 743f
00000030: 604f 8a3f 3f64 8b3f 6731 713f 700f 8a3f
00000040: cbe0 8b3f 78a8 7b3f 9aae 893f 9cee 763f
00000050: aec9 703f e229 8b3f 65c3 823f 944b 8a3f
00000060: 0a5f 713f 6cab 8a3f 471a 773f 39bb 8a3f
00000070: 3899 733f 3cf2 8a3f 1bec 713f 515f 713f
00000080: 3856 8b3f aa27 8a3f 8005 8d3f c9e8 8b3f
00000090: b841 783f a420 813f 067a 703f 6a2e 8a3f
000000a0: 6603 773f 58df 8a3f bb4b 8a3f 87d7 723f
000000b0: 918c 8a3f 8401 873f 471b 8a3f 98f9 713f
000000c0: 79af 893f 34a6 8a3f 259b 733f 7baf 7a3f
000000d0: cb2d 8a3f 58ad 703f baa6 8a3f f769 8a3f
000000e0: ceb2 713f 8732 8c3f 4a7d 8a3f e250 723f
000000f0: 40ff 893f 133e 713f da5e 893f 3f46 8d3f

net.5.bias f4 [64]
-0.05468288 0.08654637 0.07572312 0.08061965 -0.04430395 0.08224065 0.08218853 0.10959027
0.010971344 -0.048634697 -0.049341418 -0.047402427 0.082742035 0.08692485 -0.059580933 0.080081515
0.09740309 -0.01417044 0.07612307 -0.03395181 -0.060799938 0.091087125 0.017470062 0.08201952
-0.05894679 0.08853385 -0.033222217 0.08484242 -0.048222635 0.08743678 -0.051413495 -0.059057895
0.087909944 0.078291036 0.10305247 0.09532069 -0.03189767 0.005312269 -0.059227284 0.07743446
-0.035495117 0.08796947 0.078205116 -0.054130327 0.08154904 0.05329308 0.08122792 -0.05768632
0.076848924 0.0856121 -0.046887755 -0.019257594 0.08337817 -0.060592595 0.08352072 0.082215056
-0.0569359 0.100274175 0.08583795 -0.051004153 0.08142121 -0.05510388 0.074921586 0.10557012
00000000: 28fb 5fbd 393f b13d b914 9b3d ea1b a53d
00000010: 0f78 35bd c96d a83d 7652 a83d dd70 e03d
00000020: 27c1 333c 2d35 47bd 3a1a 4abd 0c29 42bd
00000030: a874 a93d a805 b23d 230b 74bd c701 a43d
00000040: 457b c73d 222b 68bc 6ae6 9b3d 0e11 0bbd
00000050: 5b09 79bd e38b ba3d 601d 8f3c daf9 a73d
00000060: 3072 71bd 3c51 b53d 0514 08bd ddc1 ad3d
00000070: 1985 45bd 0e12 b33d f596 52bd b1e6 71bd
00000080: 210a b43d 0d57 a03d 2c0d d33d 7e37 c33d
00000090: 22a7 02bd 8b12 ae3b 4f98 72bd f595 9e3d
000000a0: 5463 11bd 5629 b43d 012a a03d c3b7 5dbd
000000b0: 2f03 a73d d849 5a3d d35a a63d 7e48 6cbd
000000c0: f862 9d3d 6655 af3d 600d 40bd 1ac2 9dbc
000000d0: 2dc2 aa3d f12f 78bd e90c ab3d 5e60 a83d
000000e0: 9e35 69bd 8c5c cd3d cfcb af3d bbe9 50bd
000000f0: 2ac0 a63d 9bb4 61bd 7d70 993d 2635 d83d

net.5.running_mean f4 [64]
-0.31786713 0.038981535 -0.19814773 -0.5342077 0.36289427 -0.6006376 -0.57506925 -0.2686208
-0.5153529 -0.20774421 -0.10365276 -0.3862705 -0.30486116 -0.27662453 0.23774561 -0.19532238
-0.12867747 0.005890951 0.21011329 0.045602776 -0.19824688 -0.24151139 0.32612425 -0.56633216
0.3686226 0.15929928 -0.00488129 -0.28601342 0.13789694 -0.5685646 0.06238444 -0.21503533
-0.33665034 -0.34412405 -0.6184298 -0.34219563 0.11772949 -0.3422485 0.20881967 -0.43845317
0.043367356 -0.27700976 -0.3496702 0.1298157 -0.39970347 0.01679026 -0.14600106 -0.039009593
-0.58439773 -0.3307953 -0.19613434 0.21133378 -0.14616247 -0.18333465 -0.14011672 -0.06755528
0.16910425 -0.29711387 0.026667187 0.066365965 -0.29132748 0.19337443 -0.8692594 -0.15515198
00000000: 7bbf a2be 1aab 1f3d 3de7 4abe d6c1 08bf
00000010: 47cd b93e 63c3 19bf bd37 13bf aa88 89be
00000020: 2bee 03bf e6ba 54be e647 d4bd 3fc5 c5be
00000030: c316 9cbe bba1 8dbe 9673 733e 9702 48be
00000040: 07c4 03be e108 c13b f027 573e fac9 3a3d
00000050: 3b01 4bbe c34e 77be c2f9 a63e 25fb 10bf
00000060: 1abc bc3e 5a1f 233e 3af3 9fbb 5a70 92be
00000070: db34 0d3e 738d 11bf d486 7f3d 3932 5cbe
00000080: 6f5d acbe 0731 b0be 6a51 1ebf 4434 afbe
00000090: 291c f13d 323b afbe d3d4 553e ef7c e0be
000000a0: f8a1 313d 39d4 8dbe f907 b3be 68ee 043e
000000b0: efa5 ccbe ba8b 893c 4d81 15be 86c8 1fbd
000000c0: 179b 15bf 005e a9be 71d7 48be e267 583e
000000d0: 9dab 15be 14bc 3bbe c27a 0fbe 6c5a 8abd
000000e0: aa29 2d3e 4f1f 98be 2575 da3c e1ea 873d
000000f0: e028 95be f203 463e c987 5ebf 29e0 1ebe

net.5.running_var f4 [64]
0.23230076 0.38460267 0.40276793 0.31896356 0.2064234 0.27756214 0.25301668 0.3777575
0.3244785 0.14828485 0.17377226 0.17668557 0.43412933 0.31410754 0.20276558 0.33923978
0.44071555 0.24076971 0.26276666 0.24604931 0.32245564 0.41864812 0.254529 0.2607875
0.24511057 0.53855795 0.23257206 0.17708474 0.23621723 0.30914658 0.38374183 0.18319134
0.31755558 0.3536411 0.33120906 0.37381756 0.15694028 0.2033277 0.1781972 0.38360775
0.16169041 0.3219756 0.35499823 0.20193774 0.36078867 0.24927427 0.6125812 0.24908178
0.31931153 0.31629825 0.29893252 0.2244864 0.30366078 0.19743474 0.26585376 0.34915683
0.19377567 0.31406322 0.48633537 0.19914426 0.44100758 0.19333531 0.4439372 0.2488536
00000000: 40e0 6d3e a4ea c43e 9937 ce3e 314f a33e
00000010: a860 533e a01c 8e3e 678b 813e 6e69 c13e
00000020: 0c22 a63e fcd7 173e 5bf1 313e 10ed 343e
00000030: 3346 de3e b4d2 a03e c8a1 4f3e d6b0 ad3e
00000040: 78a5 e13e 568c 763e 5a89 863e 5af4 7b3e
00000050: e818 a53e 0c59 d63e a051 823e f085 853e
00000060: 44fe 7a3e efde 093f 5f27 6e3e b455 353e
00000070: eee2 713e 7648 9e3e cf79 c43e 8396 3b3e
00000080: a596 a23e 7210 b53e 3c94 a93e 0465 bf3e
00000090: f4b4 203e 2335 503e 5479 363e 3c68 c43e
000000a0: 2c92 253e fcd9 a43e 54c2 b53e c4c8 4e3e
000000b0: 4bb9 b83e c141 7f3e 1fd2 1c3f 4b0f 7f3e
000000c0: cd7c a33e d8f1 a13e af0d 993e c3df 653e
000000d0: 6d79 9b3e 552c 4a3e fc1d 883e afc4 b23e
000000e0: 216d 463e e5cc a03e f300 f93e 79ec 4b3e
000000f0: bfcb e13e b1f9 453e bd4b e33e 7ad3 7e3e

net.8.weight f4 [1, 64]
-0.02440991 0.11082238 0.18146233 0.16095375 0.0047191563 0.11708171 0.06914537 0.0749465
0.03911233 -0.002877703 -0.0050974623 0.0038382781 0.14677598 0.12033528 -0.054780386 0.1620536
0.071054064 0.03293533 0.18619639 0.018788759 -0.049858816 0.120058134 0.045648992 0.19041961
-0.057166535 0.1294177 0.020131167 0.12155249 -0.0008591204 0.13204956 -0.0124366395 -0.05247525
0.112619676 0.16085127 0.07254041 0.08673438 0.021889877 0.042883247 -0.049122423 0.06373997
0.01846766 0.12684833 0.14182332 -0.013894659 0.15491791 0.053919278 0.1620708 -0.017969806
0.17563973 0.14081416 0.0023350308 0.029312544 0.124717444 -0.051726297 0.13082732 0.17096345
-0.020946085 0.072489746 0.14535534 -0.0054433863 0.16550465 -0.03747958 0.061143983 0.07549893
00000000: 4bf7 c7bc d8f6 e23d 43d1 393e 0fd1 243e
00000010: 27a3 9a3b 89c8 ef3d 169c 8d3d 8d7d 993d
00000020: 4034 203d d897 3cbb 9d08 a7bb 9f8b 7b3b
00000030: 714c 163e 5872 f63d 6661 60bd 61f1 253e
00000040: cb84 913d 32e7 063d 44aa 3e3e e2ea 993c
00000050: c238 4cbd 0ae1 f53d 70fa 3a3d 5cfd 423e
00000060: 7527 6abd 1386 043e 1eea a43c 83f0 f83d
00000070: 9836 61ba 0038 073e 0cc3 4bbc 4af0 56bd
00000080: 25a5 e63d 32b6 243e 1190 943d cba1 b13d
00000090: 6652 b33c 58a6 2f3d 9834 49bd 1a8a 823d
000000a0: 7d49 973c 87e4 013e 223a 113e 6ca6 63bc
000000b0: cda2 1e3e 76da 5c3d e3f5 253e 6a35 93bc
000000c0: e7da 333e 9631 103e 5107 193b dc20 f03c
000000d0: dc6b ff3d f4de 53bd 99f7 053e 0b11 2f3e
000000e0: 2097 abbc 8175 943d 08d8 143e 6f5e b2bb
000000f0: 0d7a 293e 3084 19bd 1d72 7a3d 2f9f 9a3d
