models/final_model.pth (torch, 70534 bytes, 9 tensors)

net.0.weight f4 [128, 59]
0.0018843613 -0.04301151 0.07542848 -0.016743356 0.12452831 0.061745238 0.0908749 -0.1035971
-0.099923946 -0.06800562 -0.06597759 0.062105447 0.01737017 0.07337835 -0.05543723 -0.021056937
-0.10601361 0.08269015 -0.046193384 -0.0151237445 0.062173657 -0.040017862 0.08954473 -0.049289696
0.11054976 -0.14660828 -0.1269993 0.09614263 0.0737069 0.045972668 -0.022769522 0.0131742135
0.10813787 0.039526783 -0.024963863 -0.059921637 0.057059176 0.08250256 0.060833473 0.011190995
-0.091434024 0.016578972 0.058254972 -0.12674935 0.030847635 -0.027273433 -0.03544739 0.04484649
-0.093803115 0.08399804 -0.06767785 -0.14657661 0.03182635 0.0012641806 0.03567775 -0.11397319
0.07109817 0.084550425 -0.12217214 0.012885808 0.028297313 0.14589499 0.024142629 0.037290704
0.058674652 0.052612104 0.11471298 0.0006108725 0.11228879 0.023996493 -0.02122997 -0.019684339
0.12666805 -0.12685058 -0.04406755 -0.07506311 -0.09920302 -0.08663702 0.06917827 0.114256084
-0.04450201 -0.1482519 0.010247699 0.019764675 -0.06964003 0.040984087 -0.044169 -0.11479675
0.02330626 -0.07383821 0.08766612 -0.09748214 -0.005755744 0.0018907425 0.07307997 0.032694522
0.028803142 0.13967532 -0.049904577 0.024254225 0.012879253 0.05691169 -0.031227022 0.07578767
-0.10303147 -0.06872879 0.09721974 0.05300483 -0.036107514 -0.06356379 0.059785567 -0.026532253
0.026494535 -0.013347091 -0.04350005 0.026870603 -0.029525228 -0.07272231 -0.098628655 0.120541275
-0.12539153 0.013097499 -0.11966511 0.090544745 -0.055701334 0.05687576 -0.014027269 -0.09413445
-0.12363789 -0.04782115 -0.02427739 0.0069292244 0.11042856 -0.022741536 0.10528882 -0.08027949
0.09822608 0.07391404 -0.10096182 -0.079564214 0.08064275 -0.012195638 -0.0030600112 0.0013650747
-0.07337698 -0.14242971 0.03876284 0.08567611 -0.013695186 0.004728896 0.07297678 0.009133508
-0.11043826 -0.03574528 0.107514225 -0.024380852 -0.0036893212 0.11235658 0.02398863 0.033054445
0.07859426 0.027927576 0.13537629 0.07394943 -0.0497169 0.117230915 0.14515588 0.12959169
0.10362595 0.025836665 0.04610137 -0.015521871 -0.06812342 -0.05647712 0.09270479 0.06890874
0.060261194 -0.056831863 0.101586886 -0.07384539 0.090213194 0.123774506 0.09097004 -0.11744312
-0.11000163 0.0905677 -0.12424811 0.067954786 -0.04789621 0.12949541 -0.09566377 0.020607222
-0.00089067017 0.12576957 0.0985183 0.059690636 0.0014970674 0.07566075 -0.1216985 -0.09172306
-0.04645419 -0.13773087 -0.10182576 -0.090057336 0.040214658 -0.007470187 -0.03160512 0.0013237705
-0.09346504 0.09818148 0.064095825 0.041590765 0.05866614 0.07508421 -0.007601422 -0.06635382
0.11715673 0.01988213 0.03754508 -0.024732895 -0.02767541 -0.08601053 0.049686708 0.04425474
-0.043405574 -0.008907388 -0.09065033 0.048071712 -0.11715393 -0.07413788 0.034891263 -0.024773523
0.010583953 0.11876086 0.09582384 -0.009910701 -0.004880487 -0.058609523 0.029091485 0.004606403
-0.111330345 0.09522876 -0.012205854 0.11055956 -0.068957925 0.09366217 -0.14565955 0.08599704
-0.11204593 -0.018765932 -0.0851768 0.011104523 -0.0031431348 0.1357971 -0.07025953 0.115477696
00000000: acfc f63a d62c 30bd 3f7a 9a3d 5d29 89bc
00000010: b308 ff3d 93e8 7c3d 9f1c ba3d b72a d4bd
00000020: eda4 ccbd 8846 8bbd 421f 87bd 4862 7e3d
00000030: e34b 8e3c 6347 963d 2612 63bd 997f acbc
00000040: aa1d d9bd 7459 a93d 4635 3dbd 95c9 77bc
00000050: cea9 7e3d c5e9 23bd 3a63 b73d fee3 49bd
00000060: ea67 e23d 7b20 16be 1b0c 02be 6de6 c43d
00000070: a5f3 963d d64d 3c3d 2687 babc a8d8 573c
00000080: 6377 dd3d d6e6 213d 0481 ccbc 6470 75bd
00000090: e2b6 693d 1af7 a83d 852c 793d 6f5a 373c
000000a0: c341 bbbd a0d0 873c c49c 6e3d 95ca 01be
000000b0: 2eb4 fc3c 896c dfbc 4831 11bd f4b0 373d
000000c0: d91b c0bd 2a07 ac3d af9a 8abd 2e18 16be
000000d0: 595c 023d ddb2 a53a d522 123d c76a e9bd
000000e0: eb9b 913d c628 ad3d 6335 fabd ff1e 533c
000000f0: c4cf e73c 7f65 153e c3c6 c53c 23be 183d
00000100: d554 703d ca7f 573d a4ee ea3d f622 203a
00000110: aaf7 e53d 4b94 c43c 79ea adbc 0d41 a1bc
00000120: 45b5 013e 1ee5 01be 2d80 34bd b0ba 99bd
00000130: f42a cbbd c06e b1bd 56ad 8d3d 18ff e93d
00000140: bd47 36bd 59cf 17be f7e5 273c 87e9 a13c
00000150: 6f9f 8ebd eede 273d 8eea 34bd 8f1a ebbd
00000160: c5ec be3c 7d38 97bd 4b8a b33d b7a4 c7bd
00000170: ae9a bcbb cad2 f73a f4aa 953d b1ea 053d
00000180: 91f4 eb3c 0c07 0f3e be68 4cbd ccb0 c63c
00000190: 8103 533c 3b1c 693d d0cf ffbc 9136 9b3d
000001a0: 2a02 d3bd aec1 8cbd 251b c73d 981b 593d
000001b0: 79e5 13bd bb2d 82bd b6e1 743d 2b5a d9bc
000001c0: 110b d93c c2ad 5abc 1c2d 32bd bd1f dc3c
000001d0: e4de f1bc 6fef 94bd d2fd c9bd 58de f63d
000001e0: a366 00be e496 563c fb12 f5bd 866f b93d
000001f0: 1527 64bd 8ff6 683d a1d2 65bc 90c9 c0bd
00000200: dd35 fdbd 1ce0 43bd 61e1 c6bc 8c0e e33b
00000210: 5e28 e23d 754c babc aaa1 d73d 9369 a4bd
00000220: c12a c93d 3f60 973d 12c5 cebd 90f2 a2bd
00000230: 0728 a53d 37d0 47bc 788a 48bb 4eec b23a
00000240: ac46 96bd 18d9 11be c9c5 1e3d f576 af3d
00000250: c661 60bc dbf4 9a3b da74 953d b6a4 153c
00000260: 742d e2bd a569 12bd 6b30 dc3d 5aba c7bc
00000270: 8ac8 71bb 351b e63d ce83 c43c 1964 073d
00000280: 07f6 a03d 5fc8 e43c 15a0 0a3e cc72 973d
00000290: f3a3 4bbd c316 f03d bea3 143e afb3 043e
000002a0: d839 d43d 6aa7 d33c cad4 3c3d 724f 7ebc
000002b0: 4b84 8bbd 8d54 67bd 02dc bd3d 0720 8d3d
000002c0: 71d4 763d 87c8 68bd c90c d03d 403c 97bd
000002d0: b2c1 b83d 7d7d fd3d 804e ba3d 0586 f0bd
000002e0: 8948 e1bd 8f7b b93d cb75 febd e12b 8b3d
000002f0: d12e 44bd 729a 043e 5eeb c3bd 7ad0 a83c
00000300: dd7b 69ba bdc9 003e f6c3 c93d 2b7e 743d
00000310: 3f39 c43a 06f4 9a3d 103d f9bd 4dd9 bbbd
00000320: c046 3ebd 5209 0dbe 068a d0bd fb6f b8bd
00000330: 20b8 243d 78c8 f4bb 5f74 01bd 5e82 ad3a
00000340: 996a bfbd 5f13 c93d ac44 833d 145b 2a3d
00000350: e84b 703d c0c5 993d 5915 f9bb 83e4 87bd
00000360: deef ef3d d9df a23c dfc8 193d a49c cabc
00000370: 8bb7 e2bc 4a26 b0bd 4a84 4b3d 7544 353d
00000380: 0bca 31bd 4bf0 11bc e1a6 b9bd d8e6 443d
00000390: 66ee efbd 9ad5 97bd 24ea 0e3d d8f1 cabc
000003a0: 5168 2d3c e538 f33d 4a3f c43d 7e60 22bc
000003b0: 7eec 9fbb 8a10 70bd 4451 ee3c 4ff1 963b
000003c0: 2a01 e4bd 4c07 c33d 10fb 47bc 0d6d e23d
000003d0: d039 8dbd f4d1 bf3d c727 15be 371f b03d
000003e0: 5678 e5bd 03bb 99bc 2d71 aebd bfef 353c
000003f0: 0dfd 4dbb 650e 0b3e 3ae4 8fbd 927f ec3d

net.0.bias f4 [128]
-0.10279161 -0.079477996 0.106720395 -0.006012134 0.06385866 0.0013254549 0.08656219 -0.04181195
0.06998194 0.060532883 0.12401818 0.051547915 -0.025066026 0.07274252 -0.12803926 0.12051482
-0.06123562 -0.014638996 -0.0034900943 -0.013324631 -0.1269395 -0.02642831 0.09375698 0.0008328232
0.111905165 0.07092295 0.04230167 -0.12172412 -0.0399903 -0.11325473 0.11410159 0.11791707
-0.012405529 0.10599697 -0.034973927 0.021528134 0.023602432 -0.04989116 0.093758725 0.035655268
-0.06438074 -0.115351014 -0.092533395 -0.007184544 -0.07169962 -0.117997676 0.1302795 -0.11354104
0.008111679 -0.051273037 0.061355665 0.049522046 0.07484308 0.11122745 0.0653091 0.059975687
0.02472675 0.10022247 -0.09605857 -0.07247949 0.108338155 0.06428347 0.011014601 -0.12249979
-0.10508151 -0.088750586 0.005281469 -0.05960696 -0.079498306 0.008526376 -0.08847587 -0.124405965
-0.034551118 0.08686831 -0.06560962 0.000292585 -0.016512116 -0.071485214 -0.12452716 -0.008673327
0.032944623 0.022395741 -0.07340678 -0.04312118 -0.09502516 -0.007347713 -0.0974776 -0.09631207
0.05030566 0.042850755 -0.03964649 0.02085666 -0.045601968 0.0015214912 -0.11547005 0.12825099
0.035031073 0.03385714 -0.0607978 -0.04384063 0.030868907 0.020836141 -0.064606026 0.05144499
0.09624875 -0.09435166 0.07079246 0.044436812 0.035315905 0.04158698 0.038539 -0.12157646
0.0023022383 -0.1209368 -0.109558426 0.04316163 0.08682069 0.0110863 0.0032053257 -0.081302226
0.0077093444 -0.03473998 -0.057394397 -0.07299286 -0.08141583 0.10784669 0.024273785 -0.020570215
00000000: 6884 d2bd 5cc5 a2bd 3990 da3d 6f01 c5bb
00000010: 54c8 823d e3ba ad3a 8447 b13d 0243 2bbd
00000020: b152 8f3d 54f1 773d 3efd fd3d e823 533d
00000030: 4457 cdbc 08fa 943d b91c 03be 79d0 f63d
00000040: 34d2 7abd 66d8 6fbc 11ba 64bb 8e4f 5abc
00000050: 6efc 01be 2f80 d8bc a903 c03d d251 5a3a
00000060: 892e e53d 0d40 913d 8444 2d3d 7f4a f9bd
00000070: decc 23bd 19f2 e7bd 18ae e93d 817e f13d
00000080: 8f40 4bbc f014 d93d d240 0fbd c55b b03c
00000090: e359 c13c ac5a 4cbd 9304 c03d 420b 123d
000000a0: 0dda 83bd 273d ecbd 2682 bdbd 536c ebbb
000000b0: 40d7 92bd c4a8 f1bd fd67 053e 3488 e8bd
000000c0: d9e6 043c ad03 52bd 1450 7b3d a1d7 4a3d
000000d0: 5447 993d 38cb e33d c7c0 853d 11a9 753d
000000e0: c18f ca3c 7041 cd3d 5bba c4bd 2070 94bd
000000f0: 65e0 dd3d 0da7 833d 9676 343c 2be1 fabd
00000100: fa34 d7bd dec2 b5bd 2c10 ad3b 6d26 74bd
00000110: 02d0 a2bd 37b2 0b3c d632 b5bd 8ec8 febd
00000120: 7985 0dbd 03e8 b13d 565e 86bd 1866 9939
00000130: 6b44 87bc d766 92bd 1808 ffbd 921a 0ebc
00000140: f1f0 063d 4677 b73c 4b56 96bd d69f 30bd
00000150: 8d9c c2bd 16c5 f0bb 56a2 c7bd 433f c5bd
00000160: 4f0d 4e3d 4684 2f3d 5c64 22bd 96db aa3c
00000170: 21c9 3abd c66c c73a 907b ecbd 3a54 033e
00000180: be7c 0f3d c9ad 0a3d 1d07 79bd 3c92 33bd
00000190: cae0 fc3c 8eb0 aa3c 2a50 84bd fbb7 523d
000001a0: 111e c53d 713b c1bd a3fb 903d 6003 363d
000001b0: 69a7 103d 1c57 2a3d 12db 1d3d 14fd f8bd
000001c0: 26e1 163b b7ad f7bd 2b60 e0bd 40ca 303d
000001d0: 0ccf b13d 50a3 353c 7110 523b c881 a6bd
000001e0: ab9e fc3b 824b 0ebd 6316 6bbd 487d 95bd
000001f0: 58bd a6bd bade dc3d d1d9 c63c de82 a8bc

net.1.weight f4 [128]
1.0207527 1.0262086 0.98127335 0.9974273 1.0258752 1.0099388 1.0112067 0.98251355
0.99797434 0.98890257 1.008712 1.0073506 0.98204356 1.0209033 1.0197108 1.0279942
1.0051168 1.0037688 1.0285996 0.9800901 0.9833254 0.9787612 1.0160558 0.9740648
1.0013405 1.0192833 1.0112664 1.0287359 1.0235401 0.97223824 0.9751511 0.9734213
1.018663 1.0143045 1.0167402 0.98312634 1.0093914 1.0349822 1.0181551 1.0257647
0.98866254 0.99217606 0.99022305 0.9819701 1.0239282 1.007373 0.9724255 1.0136027
0.9929069 1.0087234 1.0121428 0.99432164 1.0368792 1.012927 0.9816064 0.9960393
1.0279516 1.0252628 1.018149 1.0235739 1.0068128 0.9787381 1.0034409 1.006798
1.0064865 1.0023217 1.0117288 1.00521 1.0091333 0.98165095 0.9841317 0.97607666
0.9787534 0.98018384 0.97855264 1.0101068 1.0043434 1.019634 1.012224 0.9791035
0.9791344 1.0103861 0.97874 1.0111318 0.9789595 0.9859227 1.0134435 0.9791803
1.0069675 0.98794144 1.0087483 1.0173281 1.0211903 1.0069057 1.0001632 0.9815184
1.0107925 1.0161111 1.0110753 1.0223577 0.9798438 1.0114424 1.0079396 0.9743266
1.0086735 0.9894577 1.0207204 1.0251595 1.0170572 0.9761982 0.9979933 1.0190938
1.0229222 0.98620355 0.9898839 1.0190293 0.9794165 1.0301485 1.0244627 1.0131843
0.9907741 1.0118635 1.0094616 0.9829449 1.0296851 1.0273008 0.97851807 1.0190405
00000000: 06a8 823f ce5a 833f bb34 7b3f 6557 7f3f
00000010: e14f 833f ad45 813f 396f 813f 0286 7b3f
00000020: 3f7b 7f3f b828 7d3f 7a1d 813f ddf0 803f
00000030: 3567 7b3f f6ac 823f e285 823f 5095 833f
00000040: aba7 803f 7f7b 803f 27a9 833f 2fe7 7a3f
00000050: 37bb 7b3f 1890 7a3f 1e0e 823f 505c 793f
00000060: ed2b 803f e077 823f 2d71 813f 9ead 833f
00000070: 5d03 833f 9be4 783f 81a3 793f 2332 793f
00000080: 8d63 823f bbd4 813f 8b24 823f 2bae 7b3f
00000090: bd33 813f 4c7a 843f e852 823f 424c 833f
000000a0: fd18 7d3f 40ff 7d3f 427f 7d3f 6462 7b3f
000000b0: 1410 833f 99f1 803f e1f0 783f bcbd 813f
000000c0: 262f 7e3f d91d 813f e58d 813f dd8b 7e3f
000000d0: 75b8 843f 98a7 813f 8f4a 7b3f 6efc 7e3f
000000e0: eb93 833f d03b 833f b552 823f 7804 833f
000000f0: 3edf 803f 958e 7a3f c070 803f c2de 803f
00000100: 8dd4 803f 144c 803f 5480 813f b9aa 803f
00000110: 482b 813f 7a4d 7b3f 0ef0 7b3f 29e0 793f
00000120: 958f 7a3f 54ed 7a3f 6d82 7a3f 2e4b 813f
00000130: 538e 803f 5e83 823f 8e90 813f 87a6 7a3f
00000140: 8da8 7a3f 5554 813f b48e 7a3f c46c 813f
00000150: 179d 7a3f 6e65 7c3f 84b8 813f 8fab 7a3f
00000160: 50e4 803f bbe9 7c3f aa1e 813f cf37 823f
00000170: 5db6 823f 49e2 803f 5905 803f ca44 7b3f
00000180: a661 813f ee0f 823f ea6a 813f 9edc 823f
00000190: 0bd7 7a3f f276 813f 2a04 813f 786d 793f
000001a0: 371c 813f 1a4d 7d3f f7a6 823f 6d38 833f
000001b0: ee2e 823f 20e8 793f 7d7c 7f3f aa71 823f
000001c0: 1def 823f d677 7c3f 0869 7d3f 8d6f 823f
000001d0: 0abb 7a3f e8db 833f 9821 833f 06b0 813f
000001e0: 5fa3 7d3f be84 813f 0a36 813f 47a2 7b3f
000001f0: b9cc 833f 987e 833f 2980 7a3f eb6f 823f

net.1.bias f4 [128]
0.031112302 0.036430955 -0.01374969 0.013874951 0.034168206 0.038104545 0.034298748 -0.02364977
0.024579212 -0.016300917 0.032147232 0.027421609 -0.0043489286 0.027732128 0.037458733 0.035633303
0.02460651 0.027431214 0.03416052 -0.025452513 -0.013171139 -0.023322895 0.030052967 -0.0159165
0.028137865 0.03350552 0.036703832 0.03662645 0.034384564 -0.0070026335 -0.0038825332 -0.014095232
0.024724493 0.029900772 0.033947337 -0.026254395 0.020917827 0.035650395 0.036240738 0.0343485
-0.01503965 0.017926238 -0.0040010726 -0.013825248 0.03564748 0.032292593 -0.013201255 0.031156661
0.0016921607 0.031413555 0.036256906 0.013196332 0.040727153 0.032947328 -0.009996607 0.018125955
0.031300202 0.03395579 0.035324525 0.03454575 0.03205761 0.0012095951 0.041210517 0.034087777
0.035323553 0.024834597 0.033597887 0.012352997 0.029120049 -0.023542434 -0.0002659802 -0.017056793
-0.023213467 -0.0059092892 -0.003130982 0.032573264 0.022935769 0.034974884 0.033134237 -0.011152789
-0.022579476 0.025813254 -0.004759661 0.027852504 -0.007934588 -0.006377139 0.0333027 -0.0148468
0.015589699 0.0055833817 0.029802997 0.036892213 0.031210605 0.020587007 0.028205005 -0.0018644568
0.02191964 0.040669505 0.029169004 0.034317985 -0.005562695 0.027411798 0.03286086 -0.008712246
0.036330383 0.011031368 0.0292603 0.03470959 0.028549295 -0.004335673 0.008730203 0.035874162
0.036844775 -0.0008451625 0.023908362 0.032538667 -0.0044785677 0.032605894 0.03454182 0.02372297
0.023632603 0.033361122 0.03374554 0.01239894 0.040607993 0.03602963 -0.027267924 0.03353619
00000000: 3adf fe3c a038 153d 6146 61bc c353 633c
00000010: f6f3 0b3d 8313 1c3d d87c 0c3d 2abd c1bc
00000020: 585a c93c 8089 85bc d1ac 033d 48a3 e03c
00000030: 7581 8ebb 7d2e e33c 546e 193d 3af4 113d
00000040: 9793 c93c 6db7 e03c e7eb 0b3d ca81 d0bc
00000050: c3cb 57bc a80f bfbc a431 f63c 5263 82bc
00000060: 6181 e63c 163d 093d c256 163d 9e05 163d
00000070: d4d6 0c3d 5976 e5bb 1972 7ebb b0ef 66bc
00000080: 058b ca3c 77f2 f43c 5d0c 0b3d 7513 d7bc
00000090: dd5b ab3c 2606 123d 2b71 143d 03b1 0c3d
000000a0: dd68 76bc 0cda 923c 6e1b 83bb 4b83 62bc
000000b0: 1803 123d 3d45 043d 144a 58bc 413c ff3c
000000c0: 7ecb dd3a 80ab 003d 1f82 143d 6e35 583c
000000d0: 84d1 263d c7f3 063d cfc8 23bc e27c 943c
000000e0: a434 003d 3a15 0b3d 73b0 103d d87f 0d3d
000000f0: d74e 033d 478b 9e3a 5ccc 283d a09f 0b3d
00000100: 6eaf 103d ed71 cb3c f09d 093d 3a64 4a3c
00000110: 2b8d ee3c 10dc c0bc 4273 8bb9 b0ba 8bbc
00000120: 2b2a bebc b6a2 c1bb 2931 4dbb 8b6b 053d
00000130: cbe3 bb3c d341 0f3d c4b7 073d 30ba 36bc
00000140: 98f8 b8bc 5176 d33c eef6 9bbb ef2a e43c
00000150: 1300 02bc 52f7 d0bb 6968 083d fe3f 73bc
00000160: f06b 7f3c cdf4 b63b 6a25 f43c 4a1c 173d
00000170: 62ad ff3c 15a6 a83c 2f0e e73c ca60 f4ba
00000180: d190 b33c 1195 263d d6f3 ee3c 0491 0c3d
00000190: 4547 b6bb b58e e03c 1c99 063d cfbd 0ebc
000001a0: 2bcf 143d e9bc 343c 4cb3 ef3c a52b 0e3d
000001b0: 36e0 e93c 4312 8ebb 2009 0f3c c9f0 123d
000001c0: 8cea 163d e58d 5dba 78db c33c 4447 053d
000001d0: f3c0 92bb c28d 053d b97b 0d3d ad56 c23c
000001e0: 2999 c13c aca5 083d c338 0a3d ec24 4b3c
000001f0: 9154 263d ce93 133d fb60 dfbc 3e5d 093d

net.1.running_mean f4 [128]
-4.591875 -3.9577608 45.933105 29.936363 -4.183757 20.03911 27.511593 -45.991234
19.314215 41.14347 -31.300928 32.11132 -28.035305 -2.347457 -24.002918 0.88997066
-12.674549 -31.970737 -0.46391788 -33.61 -6.04064 17.902884 -19.462954 -42.70267
22.759935 -7.899873 17.085594 -1.7694483 12.702819 -15.433422 -51.87695 34.26299
2.0014718 -40.588135 7.994686 46.315723 -11.253234 -0.82936066 15.099793 -12.849682
-7.2830553 -38.339645 3.4589038 -9.718515 2.991181 26.257658 -30.794367 -4.9796267
-16.47264 41.705032 14.485431 13.897367 0.04826898 -18.66037 7.0516653 -36.054817
2.7923844 -4.1371527 0.08629963 -6.4967175 17.185856 16.019773 31.499271 -25.137428
30.890982 -33.89473 22.751913 -7.2754745 -33.95064 -43.083237 -4.2399673 -34.847317
-40.01843 26.2253 -29.882826 13.5664015 -32.318214 -21.913465 -37.55728 8.034975
40.841408 -13.408386 -1.5114866 -15.419924 8.164808 2.3612332 -23.513716 4.7805643
-2.513741 -11.718689 -4.0417967 1.1339281 2.5669289 2.1410022 -20.594013 13.5773735
-7.183747 14.867582 -19.807224 0.109723 -17.555101 -24.585508 27.203407 19.398851
21.887615 -16.654085 -6.147768 6.3240275 2.710398 -26.460346 -21.006353 -6.1906257
11.4123745 -10.571093 -23.38638 -5.9077396 -18.763697 -0.2529008 7.730828 -10.706546
-18.265247 -0.9239794 27.201437 8.6627865 -2.515676 -3.2205646 -30.069374 5.325819
00000000: a4f0 92c0 f44b 7dc0 80bb 3742 ac7d ef41
00000010: 56e1 85c0 1950 a041 be17 dc41 06f7 37c2
00000020: 8383 9a41 ea92 2442 4d68 fac1 fe71 0042
00000030: 4e48 e0c1 bc3c 16c0 fa05 c0c1 1ed5 633f
00000040: f4ca 4ac1 12c4 ffc1 a586 edbe a470 06c2
00000050: ec4c c1c0 1b39 8f41 21b4 9bc1 89cf 2ac2
00000060: 5914 b641 c2cb fcc0 4caf 8841 487d e2bf
00000070: bf3e 4b41 4cef 76c1 ff81 4fc2 4d0d 0942
00000080: 1d18 0040 405a 22c2 78d4 ff40 4d43 3942
00000090: 3f0d 34c1 fb50 54bf c198 7141 4c98 4dc1
000000a0: ca0e e9c0 cc5b 19c2 ae5e 5d40 0a7f 1bc1
000000b0: 826f 3f40 af0f d241 dd5a f6c1 1a59 9fc0
000000c0: f7c7 83c1 f4d1 2642 53c4 6741 9d5b 5e41
000000d0: b2b5 453d 7048 95c1 3ea7 e140 2238 10c2
000000e0: 6db6 3240 8e63 84c0 dcbd b03d 1ce5 cfc0
000000f0: a27c 8941 7f28 8041 82fe fb41 7419 c9c1
00000100: bb20 f741 3494 07c2 eb03 b641 b0d0 e8c0
00000110: 75cd 07c2 3c55 2cc2 d0ad 87c0 a763 0bc2
00000120: df12 20c2 6acd d141 0710 efc1 fb0f 5941
00000130: da45 01c2 c74e afc1 a83a 16c2 428f 0041
00000140: 9a5d 2342 c088 56c1 6578 c1bf 02b8 76c1
00000150: 0ea3 0241 721e 1740 171c bcc1 62fa 9840
00000160: 22e1 20c0 c07f 3bc1 6656 81c0 8e24 913f
00000170: 9048 2440 2e06 0940 8ac0 a4c1 ec3c 5941
00000180: 41e1 e5c0 9ee1 6d41 3275 9ec1 74b6 e03d
00000190: d970 8cc1 1faf c4c1 94a0 d941 d930 9b41
000001a0: d619 af41 913b 85c1 84ba c4c0 6f5e ca40
000001b0: 2977 2d40 caae d3c1 030d a8c1 9b19 c6c0
000001c0: 1699 3641 3223 29c1 4e17 bbc1 340c bdc0
000001d0: 0d1c 96c1 377c 81be f162 f740 034e 2bc1
000001e0: 3a1f 92c1 ea89 6cbf 8b9c d941 c69a 0a41
000001f0: d600 21c0 bb1d 4ec0 148e f0c1 1c6d aa40

net.1.running_var f4 [128]
7.453194 16.152605 79.55407 45.59914 14.283859 26.254826 31.614227 120.9339
37.83494 68.4177 56.524296 58.719944 40.74495 9.777551 30.967012 12.018459
26.822292 50.579987 16.762623 52.870564 9.349068 15.264921 29.50947 73.949165
32.04088 10.209814 20.313492 7.8481503 17.24595 42.57501 86.131615 78.92248
12.092436 85.63046 24.357698 117.66369 18.286642 5.646063 32.792812 28.275402
12.173496 72.333206 12.735206 16.1098 20.888763 63.8593 45.08555 27.532429
23.413927 71.37243 35.119705 18.31846 9.113622 21.320343 9.047594 59.914253
12.621488 4.158879 29.35508 15.143761 31.96185 39.04734 58.951263 66.06226
50.62163 61.35532 49.978184 17.81988 123.19822 74.27852 7.608596 36.276993
87.09603 54.635536 45.426487 17.804758 40.843456 38.137238 51.5522 29.932354
60.04105 63.0948 24.6091 35.204777 13.031195 12.727112 50.22308 11.6878605
14.534462 41.940197 24.781818 29.967876 13.73375 15.160627 33.45944 20.317766
13.708425 45.794395 22.951727 18.11349 49.92188 50.75934 45.633053 38.371384
34.8926 32.737 6.4965267 9.702954 7.4363203 97.52196 39.195827 41.737198
17.619324 17.411081 30.290789 41.646866 27.409721 9.770795 21.305723 11.278919
32.890026 13.039127 36.430935 16.746569 13.394119 7.278091 55.327652 16.852716
00000000: 9180 ee40 8938 8141 af1b 9f42 8565 3642
00000010: b08a 6441 e209 d241 f0e9 fc41 28de f142
00000020: fb56 1742 ddd5 8842 e118 6242 39e1 6a42
00000030: d4fa 2242 d970 1c41 71bc f741 9c4b 4041
00000040: 0e94 d641 e851 4a42 da19 8641 757b 5342
00000050: c895 1541 1e3d 7441 6513 ec41 f9e5 9342
00000060: dc29 0042 665b 2341 0882 a241 0c24 fb40
00000070: b5f7 8941 cf4c 2a42 6343 ac42 4fd8 9d42
00000080: 9e7a 4141 cc42 ab42 91dc c241 cf53 eb42
00000090: 0b4b 9241 8cac b440 d72b 0342 0634 e241
000000a0: a4c6 4241 9aaa 9042 67c3 4b41 dfe0 8041
000000b0: 301c a741 ec6f 7f42 9a57 3442 6a42 dc41
000000c0: b94f bb41 afbe 8e42 947a 0c42 358c 9241
000000d0: 65d1 1141 1090 aa41 f2c2 1041 32a8 6f42
000000e0: 9df1 4941 8915 8540 34d7 ea41 d84c 7241
000000f0: deb1 ff41 7a30 1c42 18ce 6b42 e11f 8442
00000100: 8d7c 4a42 d96b 7542 a9e9 4742 1d8f 8e41
00000110: 7d65 f642 9a8e 9442 9e79 f340 a41b 1142
00000120: 2b31 ae42 ca8a 5a42 b9b4 3542 2570 8e41
00000130: b35f 2342 888c 1842 7435 4e42 7675 ef41
00000140: 092a 7042 1361 7c42 70df c441 b1d1 0c42
00000150: c67f 5041 40a2 4b41 6fe4 4842 7a01 3b41
00000160: 288d 6841 c3c2 2742 2a41 c641 36be ef41
00000170: 71bd 5b41 ee91 7241 77d6 0542 c98a a241
00000180: b555 5b41 762d 3742 239d b741 6de8 9041
00000190: 01b0 4742 9009 4b42 3f88 3642 4c7c 1942
000001a0: 0692 0b42 b0f2 0242 8ce3 cf40 4d3f 1b41
000001b0: 56f6 ed40 3e0b c342 87c8 1c42 e4f2 2642
000001c0: 60f4 8c41 e549 8b41 8953 f241 6496 2642
000001d0: 1c47 db41 2d55 1c41 1f72 aa41 7476 3441
000001e0: 638f 0342 44a0 5041 47b9 1142 f9f8 8541
000001f0: 504e 5641 1fe6 e840 844f 5d42 5dd2 8641

net.3.weight f4 [64, 128]
0.007607685 0.090970844 -0.075520486 0.08175952 0.020866793 0.09566808 0.07634794 -0.07085389
-0.0026899767 0.062974 -0.019471036 0.0075298813 -0.005413119 -0.06232112 0.06464915 -0.0020743313
-0.051851843 -0.012842561 0.041287422 -0.034792166 -0.05538517 -0.00818495 -0.025234673 -0.004802992
-0.065547846 0.056474146 0.011043502 0.03925365 -0.042885948 0.031180412 -0.06123066 0.0363722
-0.024727108 -0.01377988 0.026543917 -0.044472646 -0.037807003 0.029076636 0.036449537 0.01630757
0.029536942 -0.00900154 -0.043395206 0.02574127 -0.015723873 0.00220445 -0.053721733 0.034133185
0.009649267 -0.019792357 0.044484574 0.044542693 0.07491842 -0.035162468 0.022878265 -0.043552
0.10711956 -0.0056695575 -0.024192361 0.019367656 0.0911256 0.052292667 -0.0101105 -0.018148214
-0.00047035725 0.006937789 0.083182395 0.100647695 -0.08550732 0.011890056 0.013277941 0.08014746
-0.07123965 0.07570235 0.09068151 -0.030236207 0.09388819 -0.032217473 -0.047585458 0.004889313
0.0674818 0.06580909 -0.010934791 -0.03864485 0.00627566 0.06846041 0.0011367981 0.036888096
-0.017217824 0.04822066 0.03341499 0.002784082 0.088668235 -0.030821737 -0.005195622 -0.05045482
0.008295269 0.02144139 -0.022846466 -0.05733592 -0.069736436 -0.05141009 0.05964731 -0.0367637
-0.07702208 -0.047709245 0.06082161 -0.016381975 0.090318926 0.022107042 0.013484172 0.032511473
-0.0023980397 -0.065682806 -0.06222464 0.042387757 -0.04148406 -0.04547203 0.038523015 0.07455581
0.09537675 -0.048334975 -0.071853675 0.09026173 0.048469625 0.063622214 -0.031066505 -0.054209758
0.10187112 -0.0603867 0.004172373 -0.053008825 0.051093157 0.011923526 -0.047583394 -0.07403001
0.008603347 0.05273509 -0.06381265 -0.07304941 -0.07159221 0.03234801 -0.015238135 0.026240487
-0.0636677 0.07042975 0.049089056 -0.0016141381 0.08143536 -0.002271023 0.09631237 0.043184914
0.07495019 0.05913653 -0.036703926 -0.026112989 0.08157343 0.018145168 -0.067579925 0.074232765
-0.022122841 0.011314224 -0.009404185 -0.019038638 -0.046616472 -0.036544245 -0.024425091 0.07153527
-0.07250769 0.067034744 0.04774686 0.03648648 -0.06936835 -0.056766856 -0.040817514 -0.039151534
0.0061345887 -0.0021769777 0.07653739 -0.0128762135 2.6631285e-05 -0.01230158 0.011048303 -0.05978483
-0.02048045 0.0453975 0.097333826 -0.028731002 0.083370276 0.0293402 0.04268844 0.07482899
-0.0236727 0.009797448 0.019135267 0.008701271 0.04897051 0.07269611 0.07126794 -0.03780924
0.0055595557 -0.06979491 -0.05700254 0.068547964 -0.03129139 -0.024297472 -0.012805991 0.08495469
0.042776596 0.009508929 -0.060858227 -0.07004682 0.06426851 -0.06017926 0.08602003 -0.044601243
-0.009201277 -0.0077259894 -0.04299785 0.028467594 0.015652765 0.006129454 0.039502654 -0.04862327
0.010577822 -0.004681766 0.08107399 0.030656168 -0.035334952 0.046873078 -0.013303866 0.00051719055
0.027478259 0.013145543 0.099240646 0.009482409 -0.01661378 -0.06940082 0.035516478 0.019305246
0.031089533 0.07567764 0.0048668766 0.0844411 -0.07016077 0.082297295 -0.05836954 -0.054854706
-0.014174406 0.043773834 -0.013295762 -0.06268375 -0.017425394 0.09775369 -0.07145456 0.011733537
00000000: e349 f93b ec4e ba3d 7caa 9abd 8971 a73d
00000010: d6f0 aa3c a0ed c33d 4f5c 9c3d d81b 91bd
00000020: 524a 30bb 83f8 803d b981 9fbc 39bd f63b
00000030: 8960 b1bb 6e44 7fbd c666 843d 81f1 07bb
00000040: 9962 54bd 9b69 52bc 001d 293d 3b82 0ebd
00000050: 8fdb 62bd 2b1a 06bc f2b8 cebc 6b62 9dbb
00000060: f33d 86bd 6f51 673d ceef 343c 6fc8 203d
00000070: 2da9 2fbd 106e ff3c 00cd 7abd 04fb 143d
00000080: 8190 cabc 01c5 61bc a172 d93c f328 36bd
00000090: 84db 1abd 2032 ee3c 1c4c 153d 7497 853c
000000a0: 75f7 f13c 327b 13bc 2cbf 31bd 5bdf d23c
000000b0: 5acf 80bc 8978 103b 520b 5cbd 3dcf 0b3d
000000c0: f617 1e3c 9523 a2bc 7535 363d 6672 363d
000000d0: d46e 993d 8506 10bd 336b bb3c 9563 32bd
000000e0: 8061 db3d b2c7 b9bb 0f2f c6bc eba8 9e3c
000000f0: 0fa0 ba3d d630 563d 83a6 25bc 90ab 94bc
00000100: 489a f6b9 6456 e33b 885b aa3d 6120 ce3d
00000110: 761e afbd 82ce 423c b98b 593c 5a24 a43d
00000120: 18e6 91bd d509 9b3d 3ab7 b93d ecb1 f7bc
00000130: 7448 c03d 78f6 03bd f8e8 42bd 8836 a03b
00000140: e633 8a3d ebc6 863d d627 33bc 104a 1ebd
00000150: 0da4 cd3b f934 8c3d 9d00 953a f917 173d
00000160: 650c 8dbc 0783 453d 28de 083d 2575 363b
00000170: b197 b53d de7d fcbc 0940 aabb b7a9 4ebd
00000180: e1e8 073c dba5 af3c 8328 bbbc 12d9 6abd
00000190: fad1 8ebd 6393 52bd bd50 743d 8995 16bd
000001a0: c1bd 9dbd c56a 43bd 1520 793d 7e33 86bc
000001b0: 21f9 b83d d419 b53c b7ec 5c3c c02a 053d
000001c0: 6e28 1dbb b584 86bd 44df 7ebd c99e 2d3d
000001d0: 31eb 29bd e140 3abd 4fca 1d3d b7b0 983d
000001e0: e354 c33d e5fa 45bd 0528 93bd 24db b83d
000001f0: 1688 463d 5d4c 823d 2f7f febc 0d0b 5ebd
00000200: cea1 d03d 0b58 77bd 67b8 883b c81f 59bd
00000210: 0f47 513d e55a 433c cee6 42bd 0c9d 97bd
00000220: 0ef5 0c3c c000 583d 35b0 82bd ee9a 95bd
00000230: f09e 92bd 597f 043d 5fa9 79bc 4af6 d63c
00000240: 3664 82bd 793d 903d 9b11 493d 7d91 d3ba
00000250: 95c7 a63d 72d5 14bb 6b3f c53d aae2 303d
00000260: 7c7f 993d 2539 723d db56 16bd e8ea d5bc
00000270: f80f a73d 2da5 943c 5867 8abd 5907 983d
00000280: f63a b5bc 4c5f 393c 0314 1abc ebf6 9bbc
00000290: eaf0 3ebd 6baf 15bd 2117 c8bc 1581 923d
000002a0: e97e 94bd 8349 893d 3692 433d d972 153d
000002b0: fe10 8ebd 5d84 68bd 4430 27bd 5c5d 20bd
000002c0: a904 c93b a0ab 0ebb a3bf 9c3d c1f6 52bc
000002d0: 4066 df37 918c 49bc f103 353c f0e0 74bd
000002e0: 9ec6 a7bc bbf2 393d f556 c73d 475d ebbc
000002f0: 09be aa3d dc5a f03c 13da 2e3d f13f 993d
00000300: 40ed c1bc 7a85 203c 90c1 9c3c c78f 0e3c
00000310: 4d95 483d b3e1 943d edf4 913d dddd 1abd
00000320: ef2c b63b a2f0 8ebd 7f7b 69bd e062 8c3d
00000330: 672b 00bd 7e0b c7bc 38d0 51bc b9fc ad3d
00000340: 8336 2f3d 57cb 1b3c 7a46 79bd b574 8fbd
00000350: 359f 833d 877e 76bd 452b b03d cbaf 36bd
00000360: f4c0 16bc 4c2a fdbb 831e 30bd df34 e93c
00000370: 3a3a 803c 96d9 c83b 89cd 213d 3229 47bd
00000380: 9a4e 2d3c 8069 99bb 1f0a a63d a522 fb3c
00000390: 62bb 10bd fcfd 3f3d 75f8 59bc 1294 073a
000003a0: 161a e13c 6760 573c ae3e cb3d 1b5c 1b3c
000003b0: 9f19 88bc 0422 8ebd ba79 113d 0926 9e3c
000003c0: 7aaf fe3c e1fc 9a3d 527a 9f3b 75ef ac3d
000003d0: 73b0 8fbd 7c8b a83d e614 6fbd 54af 60bd
000003e0: c53b 68bc 314c 333d 78d6 59bc 5760 80bd
000003f0: b3bf 8ebc 1633 c83d c556 92bd 053e 403c

net.3.bias f4 [64]
0.08320714 0.0005510845 -0.014241926 0.05708487 0.084159404 -0.025330845 0.066158324 -0.05466089
-0.04114463 -0.04884173 0.055624556 -0.06939707 -0.01539146 -0.020962123 0.09879091 -0.048061866
0.03471675 0.021131255 0.060337268 0.060428414 -0.0020144326 0.08568007 0.08631223 -0.05031043
-0.03769596 -0.10079656 -0.09048526 0.060957257 -0.0797371 0.04066534 0.1148189 0.1213743
0.037015524 0.10000385 -0.058877435 0.017534232 0.024541242 0.087898545 -0.003679281 -0.044609968
0.0278125 -0.024598902 0.08157325 0.10897068 -0.05439168 0.044818025 -0.03315337 0.07151971
0.0973365 0.057470046 -0.03777039 0.06595736 0.047551963 -0.0044315592 0.027951363 -0.036089823
0.039124545 -0.09393671 0.035649523 0.1092318 -0.047656942 0.0020539595 -0.033420216 0.04187962
00000000: 8168 aa3d a876 103a f856 69bc d3d1 693d
00000010: c45b ac3d a282 cfbc 047e 873d 19e4 5fbd
00000020: 4687 28bd 440e 48bd 93d6 633d 0d20 8ebd
00000030: 762c 7cbc c2b8 abbc e352 ca3d 85dc 44bd
00000040: 2733 0e3d 741b ad3c 3624 773d c983 773d
00000050: 9204 04bb 0879 af3d 77c4 b03d 4f12 4ebd
00000060: 1467 1abd 6d6e cebd 5650 b9bd 51ae 793d
00000070: 344d a3bd b390 263d 2c26 eb3d 1793 f83d
00000080: 979d 173d d2ce cc3d 7729 71bd f3a3 8f3c
00000090: b70a c93c 2704 b43d 1820 71bb f1b8 36bd
000000a0: 0ad7 e33c a383 c9bc e00f a73d 052c df3d
000000b0: cfc9 5ebd 1b93 373d d4cb 07bd ed78 923d
000000c0: 5c58 c73d b665 6b3d 20b5 1abd a714 873d
000000d0: d9c5 423d 9d36 91bb 42fa e43c ecd2 13bd
000000e0: 0f41 203d e461 c0bd 3c05 123d ecb4 df3d
000000f0: ed33 43bd b99b 063b a3e3 08bd f789 2b3d

net.5.weight f4 [1, 64]
0.027948644 0.04550974 -0.052179027 -0.026421182 0.021821432 0.14672352 0.12561172 0.006503998
0.13005808 0.009340856 -0.012971747 0.012919003 0.031424176 0.07761148 0.11774995 -0.07415403
0.022844058 0.056179482 -0.047496945 0.035651408 0.115305424 0.06539885 0.13373372 0.06016844
-0.033954762 0.0028322216 -0.030941136 -0.09541865 -0.005592646 0.09640545 0.10294983 0.020282246
0.033513248 0.017578656 0.00428372 0.13910076 -0.101738915 0.13425961 0.0955977 0.08368279
0.09324112 -0.054732807 0.068853475 0.117028944 0.106925555 -0.078386225 -0.09524317 0.073474884
0.058005303 -0.059680607 -0.07592504 -0.03719621 0.11685831 -0.10298955 -0.019781845 -0.10344469
-0.062214945 -0.056476463 -0.106088765 0.08015024 -0.0012980175 0.020840064 0.12160665 -0.08191091
00000000: 8ef4 e43c 6c68 3a3d adb9 55bd 3c71 d8bc
00000010: dcc2 b23c b13e 163e 5ca0 003e 7d1f d53b
00000020: f22d 053e 640a 193c 7387 54bc 3aaa 533c
00000030: a3b6 003d c5f2 9e3d e326 f13d 11de 97bd
00000040: 7623 bb3c 751c 663d 288c 42bd 3607 123d
00000050: 4025 ec3d d5ef 853d 7ef1 083e 2f73 763d
00000060: 2614 0bbd cb9c 393b 4478 fdbc da6a c3bd
00000070: 8442 b7bb 3870 c53d 5cd7 d23d f426 a63c
00000080: 3045 093d 1d01 903c 735e 8c3b 6e70 0e3e
00000090: 7e5c d0bd 5a7b 093e bac8 c33d e261 ab3d
000000a0: 33f5 be3d 822f 60bd 0d03 8d3d dfac ef3d
000000b0: c9fb da3d f588 a0bd da0e c3bd 007a 963d
000000c0: f896 6d3d a773 74bd 967e 9bbd 0e5b 18bd
000000d0: 6953 ef3d 2fec d2bd 890d a2bc cfda d3bd
000000e0: 19d5 7ebd dd53 67bd 1145 d9bd cf25 a43d
000000f0: 3d22 aaba c8b8 aa3c e80c f93d e8c0 a7bd
